<?xml version="1.0" ?>
<net name="mobilenet_ssd_672x384" version="11">
	<layers>
		<layer id="0" name="data" type="Parameter" version="opset1">
			<data shape="1,3,384,672" element_type="f32"/>
			<rt_info>
				<attribute name="fused_names" version="0" value="data"/>
				<attribute name="old_api_map_element_type" version="0" value="f16"/>
			</rt_info>
			<output>
				<port id="0" precision="FP32" names="data">
					<dim>1</dim>
					<dim>3</dim>
					<dim>384</dim>
					<dim>672</dim>
					<rt_info>
						<attribute name="layout" version="0" layout="[N,C,H,W]"/>
					</rt_info>
				</port>
			</output>
		</layer>
		<layer id="1" name="data_mul_1237220822_compressed" type="Const" version="opset1">
			<data element_type="f16" shape="1, 1, 1, 1" offset="0" size="2"/>
			<output>
				<port id="0" precision="FP16">
					<dim>1</dim>
					<dim>1</dim>
					<dim>1</dim>
					<dim>1</dim>
				</port>
			</output>
		</layer>
		<layer id="2" name="data_mul_1237220822" type="Convert" version="opset1">
			<data destination_type="f32"/>
			<rt_info>
				<attribute name="decompression" version="0"/>
				<attribute name="fused_names" version="0" value="data_mul_1237220822"/>
			</rt_info>
			<input>
				<port id="0" precision="FP16">
					<dim>1</dim>
					<dim>1</dim>
					<dim>1</dim>
					<dim>1</dim>
				</port>
			</input>
			<output>
				<port id="1" precision="FP32">
					<dim>1</dim>
					<dim>1</dim>
					<dim>1</dim>
					<dim>1</dim>
				</port>
			</output>
		</layer>
		<layer id="3" name="data/scale/Fused_Mul_" type="Multiply" version="opset1">
			<data auto_broadcast="numpy"/>
			<rt_info>
				<attribute name="fused_names" version="0" value="data/scale/Fused_Mul_"/>
			</rt_info>
			<input>
				<port id="0" precision="FP32">
					<dim>1</dim>
					<dim>3</dim>
					<dim>384</dim>
					<dim>672</dim>
				</port>
				<port id="1" precision="FP32">
					<dim>1</dim>
					<dim>1</dim>
					<dim>1</dim>
					<dim>1</dim>
				</port>
			</input>
			<output>
				<port id="2" precision="FP32">
					<dim>1</dim>
					<dim>3</dim>
					<dim>384</dim>
					<dim>672</dim>
				</port>
			</output>
		</layer>
		<layer id="4" name="data_add_1237421023_compressed" type="Const" version="opset1">
			<data element_type="f16" shape="1, 3, 1, 1" offset="2" size="6"/>
			<output>
				<port id="0" precision="FP16">
					<dim>1</dim>
					<dim>3</dim>
					<dim>1</dim>
					<dim>1</dim>
				</port>
			</output>
		</layer>
		<layer id="5" name="data_add_1237421023" type="Convert" version="opset1">
			<data destination_type="f32"/>
			<rt_info>
				<attribute name="decompression" version="0"/>
				<attribute name="fused_names" version="0" value="data_add_1237421023"/>
			</rt_info>
			<input>
				<port id="0" precision="FP16">
					<dim>1</dim>
					<dim>3</dim>
					<dim>1</dim>
					<dim>1</dim>
				</port>
			</input>
			<output>
				<port id="1" precision="FP32">
					<dim>1</dim>
					<dim>3</dim>
					<dim>1</dim>
					<dim>1</dim>
				</port>
			</output>
		</layer>
		<layer id="6" name="data/mean/Fused_Add_" type="Add" version="opset1">
			<data auto_broadcast="numpy"/>
			<rt_info>
				<attribute name="fused_names" version="0" value="data/mean/Fused_Add_"/>
			</rt_info>
			<input>
				<port id="0" precision="FP32">
					<dim>1</dim>
					<dim>3</dim>
					<dim>384</dim>
					<dim>672</dim>
				</port>
				<port id="1" precision="FP32">
					<dim>1</dim>
					<dim>3</dim>
					<dim>1</dim>
					<dim>1</dim>
				</port>
			</input>
			<output>
				<port id="2" precision="FP32">
					<dim>1</dim>
					<dim>3</dim>
					<dim>384</dim>
					<dim>672</dim>
				</port>
			</output>
		</layer>
		<layer id="7" name="conv1/bn/mean/Fused_Mul__copy_compressed" type="Const" version="opset1">
			<data element_type="f16" shape="24, 3, 3, 3" offset="8" size="1296"/>
			<output>
				<port id="0" precision="FP16">
					<dim>24</dim>
					<dim>3</dim>
					<dim>3</dim>
					<dim>3</dim>
				</port>
			</output>
		</layer>
		<layer id="8" name="conv1/bn/mean/Fused_Mul__copy" type="Convert" version="opset1">
			<data destination_type="f32"/>
			<rt_info>
				<attribute name="decompression" version="0"/>
				<attribute name="fused_names" version="0" value="conv1/bn/mean/Fused_Mul__copy"/>
			</rt_info>
			<input>
				<port id="0" precision="FP16">
					<dim>24</dim>
					<dim>3</dim>
					<dim>3</dim>
					<dim>3</dim>
				</port>
			</input>
			<output>
				<port id="1" precision="FP32">
					<dim>24</dim>
					<dim>3</dim>
					<dim>3</dim>
					<dim>3</dim>
				</port>
			</output>
		</layer>
		<layer id="9" name="conv1" type="Convolution" version="opset1">
			<data strides="2, 2" dilations="1, 1" pads_begin="1, 1" pads_end="1, 1" auto_pad="explicit"/>
			<rt_info>
				<attribute name="fused_names" version="0" value="conv1"/>
			</rt_info>
			<input>
				<port id="0" precision="FP32">
					<dim>1</dim>
					<dim>3</dim>
					<dim>384</dim>
					<dim>672</dim>
				</port>
				<port id="1" precision="FP32">
					<dim>24</dim>
					<dim>3</dim>
					<dim>3</dim>
					<dim>3</dim>
				</port>
			</input>
			<output>
				<port id="2" precision="FP32">
					<dim>1</dim>
					<dim>24</dim>
					<dim>192</dim>
					<dim>336</dim>
				</port>
			</output>
		</layer>
		<layer id="10" name="data_add_1237712382_compressed" type="Const" version="opset1">
			<data element_type="f16" shape="1, 24, 1, 1" offset="1304" size="48"/>
			<output>
				<port id="0" precision="FP16">
					<dim>1</dim>
					<dim>24</dim>
					<dim>1</dim>
					<dim>1</dim>
				</port>
			</output>
		</layer>
		<layer id="11" name="data_add_1237712382" type="Convert" version="opset1">
			<data destination_type="f32"/>
			<rt_info>
				<attribute name="decompression" version="0"/>
				<attribute name="fused_names" version="0" value="data_add_1237712382"/>
			</rt_info>
			<input>
				<port id="0" precision="FP16">
					<dim>1</dim>
					<dim>24</dim>
					<dim>1</dim>
					<dim>1</dim>
				</port>
			</input>
			<output>
				<port id="1" precision="FP32">
					<dim>1</dim>
					<dim>24</dim>
					<dim>1</dim>
					<dim>1</dim>
				</port>
			</output>
		</layer>
		<layer id="12" name="conv1/bn/variance/Fused_Add_" type="Add" version="opset1">
			<data auto_broadcast="numpy"/>
			<rt_info>
				<attribute name="fused_names" version="0" value="conv1/bn/variance/Fused_Add_"/>
			</rt_info>
			<input>
				<port id="0" precision="FP32">
					<dim>1</dim>
					<dim>24</dim>
					<dim>192</dim>
					<dim>336</dim>
				</port>
				<port id="1" precision="FP32">
					<dim>1</dim>
					<dim>24</dim>
					<dim>1</dim>
					<dim>1</dim>
				</port>
			</input>
			<output>
				<port id="2" precision="FP32" names="conv1">
					<dim>1</dim>
					<dim>24</dim>
					<dim>192</dim>
					<dim>336</dim>
				</port>
			</output>
		</layer>
		<layer id="13" name="relu1" type="ReLU" version="opset1">
			<rt_info>
				<attribute name="fused_names" version="0" value="relu1"/>
			</rt_info>
			<input>
				<port id="0" precision="FP32">
					<dim>1</dim>
					<dim>24</dim>
					<dim>192</dim>
					<dim>336</dim>
				</port>
			</input>
			<output>
				<port id="1" precision="FP32" names="conv1">
					<dim>1</dim>
					<dim>24</dim>
					<dim>192</dim>
					<dim>336</dim>
				</port>
			</output>
		</layer>
		<layer id="14" name="conv2_1/dw/bn/mean/Fused_Mul__copy_compressed" type="Const" version="opset1">
			<data element_type="f16" shape="24, 1, 1, 3, 3" offset="1352" size="432"/>
			<output>
				<port id="0" precision="FP16">
					<dim>24</dim>
					<dim>1</dim>
					<dim>1</dim>
					<dim>3</dim>
					<dim>3</dim>
				</port>
			</output>
		</layer>
		<layer id="15" name="conv2_1/dw/bn/mean/Fused_Mul__copy" type="Convert" version="opset1">
			<data destination_type="f32"/>
			<rt_info>
				<attribute name="decompression" version="0"/>
				<attribute name="fused_names" version="0" value="conv2_1/dw/bn/mean/Fused_Mul__copy"/>
			</rt_info>
			<input>
				<port id="0" precision="FP16">
					<dim>24</dim>
					<dim>1</dim>
					<dim>1</dim>
					<dim>3</dim>
					<dim>3</dim>
				</port>
			</input>
			<output>
				<port id="1" precision="FP32">
					<dim>24</dim>
					<dim>1</dim>
					<dim>1</dim>
					<dim>3</dim>
					<dim>3</dim>
				</port>
			</output>
		</layer>
		<layer id="16" name="conv2_1/dw" type="GroupConvolution" version="opset1">
			<data strides="1, 1" pads_begin="1, 1" pads_end="1, 1" dilations="1, 1" auto_pad="explicit"/>
			<rt_info>
				<attribute name="fused_names" version="0" value="conv2_1/dw"/>
			</rt_info>
			<input>
				<port id="0" precision="FP32">
					<dim>1</dim>
					<dim>24</dim>
					<dim>192</dim>
					<dim>336</dim>
				</port>
				<port id="1" precision="FP32">
					<dim>24</dim>
					<dim>1</dim>
					<dim>1</dim>
					<dim>3</dim>
					<dim>3</dim>
				</port>
			</input>
			<output>
				<port id="2" precision="FP32">
					<dim>1</dim>
					<dim>24</dim>
					<dim>192</dim>
					<dim>336</dim>
				</port>
			</output>
		</layer>
		<layer id="17" name="data_add_1238512390_compressed" type="Const" version="opset1">
			<data element_type="f16" shape="1, 24, 1, 1" offset="1784" size="48"/>
			<output>
				<port id="0" precision="FP16">
					<dim>1</dim>
					<dim>24</dim>
					<dim>1</dim>
					<dim>1</dim>
				</port>
			</output>
		</layer>
		<layer id="18" name="data_add_1238512390" type="Convert" version="opset1">
			<data destination_type="f32"/>
			<rt_info>
				<attribute name="decompression" version="0"/>
				<attribute name="fused_names" version="0" value="data_add_1238512390"/>
			</rt_info>
			<input>
				<port id="0" precision="FP16">
					<dim>1</dim>
					<dim>24</dim>
					<dim>1</dim>
					<dim>1</dim>
				</port>
			</input>
			<output>
				<port id="1" precision="FP32">
					<dim>1</dim>
					<dim>24</dim>
					<dim>1</dim>
					<dim>1</dim>
				</port>
			</output>
		</layer>
		<layer id="19" name="conv2_1/dw/bn/variance/Fused_Add_" type="Add" version="opset1">
			<data auto_broadcast="numpy"/>
			<rt_info>
				<attribute name="fused_names" version="0" value="conv2_1/dw/bn/variance/Fused_Add_"/>
			</rt_info>
			<input>
				<port id="0" precision="FP32">
					<dim>1</dim>
					<dim>24</dim>
					<dim>192</dim>
					<dim>336</dim>
				</port>
				<port id="1" precision="FP32">
					<dim>1</dim>
					<dim>24</dim>
					<dim>1</dim>
					<dim>1</dim>
				</port>
			</input>
			<output>
				<port id="2" precision="FP32" names="conv2_1/dw">
					<dim>1</dim>
					<dim>24</dim>
					<dim>192</dim>
					<dim>336</dim>
				</port>
			</output>
		</layer>
		<layer id="20" name="relu2_1/dw" type="ReLU" version="opset1">
			<rt_info>
				<attribute name="fused_names" version="0" value="relu2_1/dw"/>
			</rt_info>
			<input>
				<port id="0" precision="FP32">
					<dim>1</dim>
					<dim>24</dim>
					<dim>192</dim>
					<dim>336</dim>
				</port>
			</input>
			<output>
				<port id="1" precision="FP32" names="conv2_1/dw">
					<dim>1</dim>
					<dim>24</dim>
					<dim>192</dim>
					<dim>336</dim>
				</port>
			</output>
		</layer>
		<layer id="21" name="conv2_1/sep/bn/mean/Fused_Mul__copy_compressed" type="Const" version="opset1">
			<data element_type="f16" shape="56, 24, 1, 1" offset="1832" size="2688"/>
			<output>
				<port id="0" precision="FP16">
					<dim>56</dim>
					<dim>24</dim>
					<dim>1</dim>
					<dim>1</dim>
				</port>
			</output>
		</layer>
		<layer id="22" name="conv2_1/sep/bn/mean/Fused_Mul__copy" type="Convert" version="opset1">
			<data destination_type="f32"/>
			<rt_info>
				<attribute name="decompression" version="0"/>
				<attribute name="fused_names" version="0" value="conv2_1/sep/bn/mean/Fused_Mul__copy"/>
			</rt_info>
			<input>
				<port id="0" precision="FP16">
					<dim>56</dim>
					<dim>24</dim>
					<dim>1</dim>
					<dim>1</dim>
				</port>
			</input>
			<output>
				<port id="1" precision="FP32">
					<dim>56</dim>
					<dim>24</dim>
					<dim>1</dim>
					<dim>1</dim>
				</port>
			</output>
		</layer>
		<layer id="23" name="conv2_1/sep" type="Convolution" version="opset1">
			<data strides="1, 1" dilations="1, 1" pads_begin="0, 0" pads_end="0, 0" auto_pad="explicit"/>
			<rt_info>
				<attribute name="fused_names" version="0" value="conv2_1/sep"/>
			</rt_info>
			<input>
				<port id="0" precision="FP32">
					<dim>1</dim>
					<dim>24</dim>
					<dim>192</dim>
					<dim>336</dim>
				</port>
				<port id="1" precision="FP32">
					<dim>56</dim>
					<dim>24</dim>
					<dim>1</dim>
					<dim>1</dim>
				</port>
			</input>
			<output>
				<port id="2" precision="FP32">
					<dim>1</dim>
					<dim>56</dim>
					<dim>192</dim>
					<dim>336</dim>
				</port>
			</output>
		</layer>
		<layer id="24" name="data_add_1239312398_compressed" type="Const" version="opset1">
			<data element_type="f16" shape="1, 56, 1, 1" offset="4520" size="112"/>
			<output>
				<port id="0" precision="FP16">
					<dim>1</dim>
					<dim>56</dim>
					<dim>1</dim>
					<dim>1</dim>
				</port>
			</output>
		</layer>
		<layer id="25" name="data_add_1239312398" type="Convert" version="opset1">
			<data destination_type="f32"/>
			<rt_info>
				<attribute name="decompression" version="0"/>
				<attribute name="fused_names" version="0" value="data_add_1239312398"/>
			</rt_info>
			<input>
				<port id="0" precision="FP16">
					<dim>1</dim>
					<dim>56</dim>
					<dim>1</dim>
					<dim>1</dim>
				</port>
			</input>
			<output>
				<port id="1" precision="FP32">
					<dim>1</dim>
					<dim>56</dim>
					<dim>1</dim>
					<dim>1</dim>
				</port>
			</output>
		</layer>
		<layer id="26" name="conv2_1/sep/bn/variance/Fused_Add_" type="Add" version="opset1">
			<data auto_broadcast="numpy"/>
			<rt_info>
				<attribute name="fused_names" version="0" value="conv2_1/sep/bn/variance/Fused_Add_"/>
			</rt_info>
			<input>
				<port id="0" precision="FP32">
					<dim>1</dim>
					<dim>56</dim>
					<dim>192</dim>
					<dim>336</dim>
				</port>
				<port id="1" precision="FP32">
					<dim>1</dim>
					<dim>56</dim>
					<dim>1</dim>
					<dim>1</dim>
				</port>
			</input>
			<output>
				<port id="2" precision="FP32" names="conv2_1/sep">
					<dim>1</dim>
					<dim>56</dim>
					<dim>192</dim>
					<dim>336</dim>
				</port>
			</output>
		</layer>
		<layer id="27" name="relu2_1/sep" type="ReLU" version="opset1">
			<rt_info>
				<attribute name="fused_names" version="0" value="relu2_1/sep"/>
			</rt_info>
			<input>
				<port id="0" precision="FP32">
					<dim>1</dim>
					<dim>56</dim>
					<dim>192</dim>
					<dim>336</dim>
				</port>
			</input>
			<output>
				<port id="1" precision="FP32" names="conv2_1/sep">
					<dim>1</dim>
					<dim>56</dim>
					<dim>192</dim>
					<dim>336</dim>
				</port>
			</output>
		</layer>
		<layer id="28" name="conv2_2/dw/bn/mean/Fused_Mul__copy_compressed" type="Const" version="opset1">
			<data element_type="f16" shape="56, 1, 1, 3, 3" offset="4632" size="1008"/>
			<output>
				<port id="0" precision="FP16">
					<dim>56</dim>
					<dim>1</dim>
					<dim>1</dim>
					<dim>3</dim>
					<dim>3</dim>
				</port>
			</output>
		</layer>
		<layer id="29" name="conv2_2/dw/bn/mean/Fused_Mul__copy" type="Convert" version="opset1">
			<data destination_type="f32"/>
			<rt_info>
				<attribute name="decompression" version="0"/>
				<attribute name="fused_names" version="0" value="conv2_2/dw/bn/mean/Fused_Mul__copy"/>
			</rt_info>
			<input>
				<port id="0" precision="FP16">
					<dim>56</dim>
					<dim>1</dim>
					<dim>1</dim>
					<dim>3</dim>
					<dim>3</dim>
				</port>
			</input>
			<output>
				<port id="1" precision="FP32">
					<dim>56</dim>
					<dim>1</dim>
					<dim>1</dim>
					<dim>3</dim>
					<dim>3</dim>
				</port>
			</output>
		</layer>
		<layer id="30" name="conv2_2/dw" type="GroupConvolution" version="opset1">
			<data strides="2, 2" pads_begin="1, 1" pads_end="1, 1" dilations="1, 1" auto_pad="explicit"/>
			<rt_info>
				<attribute name="fused_names" version="0" value="conv2_2/dw"/>
			</rt_info>
			<input>
				<port id="0" precision="FP32">
					<dim>1</dim>
					<dim>56</dim>
					<dim>192</dim>
					<dim>336</dim>
				</port>
				<port id="1" precision="FP32">
					<dim>56</dim>
					<dim>1</dim>
					<dim>1</dim>
					<dim>3</dim>
					<dim>3</dim>
				</port>
			</input>
			<output>
				<port id="2" precision="FP32">
					<dim>1</dim>
					<dim>56</dim>
					<dim>96</dim>
					<dim>168</dim>
				</port>
			</output>
		</layer>
		<layer id="31" name="data_add_1240112406_compressed" type="Const" version="opset1">
			<data element_type="f16" shape="1, 56, 1, 1" offset="5640" size="112"/>
			<output>
				<port id="0" precision="FP16">
					<dim>1</dim>
					<dim>56</dim>
					<dim>1</dim>
					<dim>1</dim>
				</port>
			</output>
		</layer>
		<layer id="32" name="data_add_1240112406" type="Convert" version="opset1">
			<data destination_type="f32"/>
			<rt_info>
				<attribute name="decompression" version="0"/>
				<attribute name="fused_names" version="0" value="data_add_1240112406"/>
			</rt_info>
			<input>
				<port id="0" precision="FP16">
					<dim>1</dim>
					<dim>56</dim>
					<dim>1</dim>
					<dim>1</dim>
				</port>
			</input>
			<output>
				<port id="1" precision="FP32">
					<dim>1</dim>
					<dim>56</dim>
					<dim>1</dim>
					<dim>1</dim>
				</port>
			</output>
		</layer>
		<layer id="33" name="conv2_2/dw/bn/variance/Fused_Add_" type="Add" version="opset1">
			<data auto_broadcast="numpy"/>
			<rt_info>
				<attribute name="fused_names" version="0" value="conv2_2/dw/bn/variance/Fused_Add_"/>
			</rt_info>
			<input>
				<port id="0" precision="FP32">
					<dim>1</dim>
					<dim>56</dim>
					<dim>96</dim>
					<dim>168</dim>
				</port>
				<port id="1" precision="FP32">
					<dim>1</dim>
					<dim>56</dim>
					<dim>1</dim>
					<dim>1</dim>
				</port>
			</input>
			<output>
				<port id="2" precision="FP32" names="conv2_2/dw">
					<dim>1</dim>
					<dim>56</dim>
					<dim>96</dim>
					<dim>168</dim>
				</port>
			</output>
		</layer>
		<layer id="34" name="relu2_2/dw" type="ReLU" version="opset1">
			<rt_info>
				<attribute name="fused_names" version="0" value="relu2_2/dw"/>
			</rt_info>
			<input>
				<port id="0" precision="FP32">
					<dim>1</dim>
					<dim>56</dim>
					<dim>96</dim>
					<dim>168</dim>
				</port>
			</input>
			<output>
				<port id="1" precision="FP32" names="conv2_2/dw">
					<dim>1</dim>
					<dim>56</dim>
					<dim>96</dim>
					<dim>168</dim>
				</port>
			</output>
		</layer>
		<layer id="35" name="conv2_2/sep/bn/mean/Fused_Mul__copy_compressed" type="Const" version="opset1">
			<data element_type="f16" shape="104, 56, 1, 1" offset="5752" size="11648"/>
			<output>
				<port id="0" precision="FP16">
					<dim>104</dim>
					<dim>56</dim>
					<dim>1</dim>
					<dim>1</dim>
				</port>
			</output>
		</layer>
		<layer id="36" name="conv2_2/sep/bn/mean/Fused_Mul__copy" type="Convert" version="opset1">
			<data destination_type="f32"/>
			<rt_info>
				<attribute name="decompression" version="0"/>
				<attribute name="fused_names" version="0" value="conv2_2/sep/bn/mean/Fused_Mul__copy"/>
			</rt_info>
			<input>
				<port id="0" precision="FP16">
					<dim>104</dim>
					<dim>56</dim>
					<dim>1</dim>
					<dim>1</dim>
				</port>
			</input>
			<output>
				<port id="1" precision="FP32">
					<dim>104</dim>
					<dim>56</dim>
					<dim>1</dim>
					<dim>1</dim>
				</port>
			</output>
		</layer>
		<layer id="37" name="conv2_2/sep" type="Convolution" version="opset1">
			<data strides="1, 1" dilations="1, 1" pads_begin="0, 0" pads_end="0, 0" auto_pad="explicit"/>
			<rt_info>
				<attribute name="fused_names" version="0" value="conv2_2/sep"/>
			</rt_info>
			<input>
				<port id="0" precision="FP32">
					<dim>1</dim>
					<dim>56</dim>
					<dim>96</dim>
					<dim>168</dim>
				</port>
				<port id="1" precision="FP32">
					<dim>104</dim>
					<dim>56</dim>
					<dim>1</dim>
					<dim>1</dim>
				</port>
			</input>
			<output>
				<port id="2" precision="FP32">
					<dim>1</dim>
					<dim>104</dim>
					<dim>96</dim>
					<dim>168</dim>
				</port>
			</output>
		</layer>
		<layer id="38" name="data_add_1240912414_compressed" type="Const" version="opset1">
			<data element_type="f16" shape="1, 104, 1, 1" offset="17400" size="208"/>
			<output>
				<port id="0" precision="FP16">
					<dim>1</dim>
					<dim>104</dim>
					<dim>1</dim>
					<dim>1</dim>
				</port>
			</output>
		</layer>
		<layer id="39" name="data_add_1240912414" type="Convert" version="opset1">
			<data destination_type="f32"/>
			<rt_info>
				<attribute name="decompression" version="0"/>
				<attribute name="fused_names" version="0" value="data_add_1240912414"/>
			</rt_info>
			<input>
				<port id="0" precision="FP16">
					<dim>1</dim>
					<dim>104</dim>
					<dim>1</dim>
					<dim>1</dim>
				</port>
			</input>
			<output>
				<port id="1" precision="FP32">
					<dim>1</dim>
					<dim>104</dim>
					<dim>1</dim>
					<dim>1</dim>
				</port>
			</output>
		</layer>
		<layer id="40" name="conv2_2/sep/bn/variance/Fused_Add_" type="Add" version="opset1">
			<data auto_broadcast="numpy"/>
			<rt_info>
				<attribute name="fused_names" version="0" value="conv2_2/sep/bn/variance/Fused_Add_"/>
			</rt_info>
			<input>
				<port id="0" precision="FP32">
					<dim>1</dim>
					<dim>104</dim>
					<dim>96</dim>
					<dim>168</dim>
				</port>
				<port id="1" precision="FP32">
					<dim>1</dim>
					<dim>104</dim>
					<dim>1</dim>
					<dim>1</dim>
				</port>
			</input>
			<output>
				<port id="2" precision="FP32" names="conv2_2/sep">
					<dim>1</dim>
					<dim>104</dim>
					<dim>96</dim>
					<dim>168</dim>
				</port>
			</output>
		</layer>
		<layer id="41" name="relu2_2/sep" type="ReLU" version="opset1">
			<rt_info>
				<attribute name="fused_names" version="0" value="relu2_2/sep"/>
			</rt_info>
			<input>
				<port id="0" precision="FP32">
					<dim>1</dim>
					<dim>104</dim>
					<dim>96</dim>
					<dim>168</dim>
				</port>
			</input>
			<output>
				<port id="1" precision="FP32" names="conv2_2/sep">
					<dim>1</dim>
					<dim>104</dim>
					<dim>96</dim>
					<dim>168</dim>
				</port>
			</output>
		</layer>
		<layer id="42" name="conv3_1/dw/bn/mean/Fused_Mul__copy_compressed" type="Const" version="opset1">
			<data element_type="f16" shape="104, 1, 1, 3, 3" offset="17608" size="1872"/>
			<output>
				<port id="0" precision="FP16">
					<dim>104</dim>
					<dim>1</dim>
					<dim>1</dim>
					<dim>3</dim>
					<dim>3</dim>
				</port>
			</output>
		</layer>
		<layer id="43" name="conv3_1/dw/bn/mean/Fused_Mul__copy" type="Convert" version="opset1">
			<data destination_type="f32"/>
			<rt_info>
				<attribute name="decompression" version="0"/>
				<attribute name="fused_names" version="0" value="conv3_1/dw/bn/mean/Fused_Mul__copy"/>
			</rt_info>
			<input>
				<port id="0" precision="FP16">
					<dim>104</dim>
					<dim>1</dim>
					<dim>1</dim>
					<dim>3</dim>
					<dim>3</dim>
				</port>
			</input>
			<output>
				<port id="1" precision="FP32">
					<dim>104</dim>
					<dim>1</dim>
					<dim>1</dim>
					<dim>3</dim>
					<dim>3</dim>
				</port>
			</output>
		</layer>
		<layer id="44" name="conv3_1/dw" type="GroupConvolution" version="opset1">
			<data strides="1, 1" pads_begin="1, 1" pads_end="1, 1" dilations="1, 1" auto_pad="explicit"/>
			<rt_info>
				<attribute name="fused_names" version="0" value="conv3_1/dw"/>
			</rt_info>
			<input>
				<port id="0" precision="FP32">
					<dim>1</dim>
					<dim>104</dim>
					<dim>96</dim>
					<dim>168</dim>
				</port>
				<port id="1" precision="FP32">
					<dim>104</dim>
					<dim>1</dim>
					<dim>1</dim>
					<dim>3</dim>
					<dim>3</dim>
				</port>
			</input>
			<output>
				<port id="2" precision="FP32">
					<dim>1</dim>
					<dim>104</dim>
					<dim>96</dim>
					<dim>168</dim>
				</port>
			</output>
		</layer>
		<layer id="45" name="data_add_1241712422_compressed" type="Const" version="opset1">
			<data element_type="f16" shape="1, 104, 1, 1" offset="19480" size="208"/>
			<output>
				<port id="0" precision="FP16">
					<dim>1</dim>
					<dim>104</dim>
					<dim>1</dim>
					<dim>1</dim>
				</port>
			</output>
		</layer>
		<layer id="46" name="data_add_1241712422" type="Convert" version="opset1">
			<data destination_type="f32"/>
			<rt_info>
				<attribute name="decompression" version="0"/>
				<attribute name="fused_names" version="0" value="data_add_1241712422"/>
			</rt_info>
			<input>
				<port id="0" precision="FP16">
					<dim>1</dim>
					<dim>104</dim>
					<dim>1</dim>
					<dim>1</dim>
				</port>
			</input>
			<output>
				<port id="1" precision="FP32">
					<dim>1</dim>
					<dim>104</dim>
					<dim>1</dim>
					<dim>1</dim>
				</port>
			</output>
		</layer>
		<layer id="47" name="conv3_1/dw/bn/variance/Fused_Add_" type="Add" version="opset1">
			<data auto_broadcast="numpy"/>
			<rt_info>
				<attribute name="fused_names" version="0" value="conv3_1/dw/bn/variance/Fused_Add_"/>
			</rt_info>
			<input>
				<port id="0" precision="FP32">
					<dim>1</dim>
					<dim>104</dim>
					<dim>96</dim>
					<dim>168</dim>
				</port>
				<port id="1" precision="FP32">
					<dim>1</dim>
					<dim>104</dim>
					<dim>1</dim>
					<dim>1</dim>
				</port>
			</input>
			<output>
				<port id="2" precision="FP32" names="conv3_1/dw">
					<dim>1</dim>
					<dim>104</dim>
					<dim>96</dim>
					<dim>168</dim>
				</port>
			</output>
		</layer>
		<layer id="48" name="relu3_1/dw" type="ReLU" version="opset1">
			<rt_info>
				<attribute name="fused_names" version="0" value="relu3_1/dw"/>
			</rt_info>
			<input>
				<port id="0" precision="FP32">
					<dim>1</dim>
					<dim>104</dim>
					<dim>96</dim>
					<dim>168</dim>
				</port>
			</input>
			<output>
				<port id="1" precision="FP32" names="conv3_1/dw">
					<dim>1</dim>
					<dim>104</dim>
					<dim>96</dim>
					<dim>168</dim>
				</port>
			</output>
		</layer>
		<layer id="49" name="conv3_1/sep/bn/mean/Fused_Mul__copy_compressed" type="Const" version="opset1">
			<data element_type="f16" shape="120, 104, 1, 1" offset="19688" size="24960"/>
			<output>
				<port id="0" precision="FP16">
					<dim>120</dim>
					<dim>104</dim>
					<dim>1</dim>
					<dim>1</dim>
				</port>
			</output>
		</layer>
		<layer id="50" name="conv3_1/sep/bn/mean/Fused_Mul__copy" type="Convert" version="opset1">
			<data destination_type="f32"/>
			<rt_info>
				<attribute name="decompression" version="0"/>
				<attribute name="fused_names" version="0" value="conv3_1/sep/bn/mean/Fused_Mul__copy"/>
			</rt_info>
			<input>
				<port id="0" precision="FP16">
					<dim>120</dim>
					<dim>104</dim>
					<dim>1</dim>
					<dim>1</dim>
				</port>
			</input>
			<output>
				<port id="1" precision="FP32">
					<dim>120</dim>
					<dim>104</dim>
					<dim>1</dim>
					<dim>1</dim>
				</port>
			</output>
		</layer>
		<layer id="51" name="conv3_1/sep" type="Convolution" version="opset1">
			<data strides="1, 1" dilations="1, 1" pads_begin="0, 0" pads_end="0, 0" auto_pad="explicit"/>
			<rt_info>
				<attribute name="fused_names" version="0" value="conv3_1/sep"/>
			</rt_info>
			<input>
				<port id="0" precision="FP32">
					<dim>1</dim>
					<dim>104</dim>
					<dim>96</dim>
					<dim>168</dim>
				</port>
				<port id="1" precision="FP32">
					<dim>120</dim>
					<dim>104</dim>
					<dim>1</dim>
					<dim>1</dim>
				</port>
			</input>
			<output>
				<port id="2" precision="FP32">
					<dim>1</dim>
					<dim>120</dim>
					<dim>96</dim>
					<dim>168</dim>
				</port>
			</output>
		</layer>
		<layer id="52" name="data_add_1242512430_compressed" type="Const" version="opset1">
			<data element_type="f16" shape="1, 120, 1, 1" offset="44648" size="240"/>
			<output>
				<port id="0" precision="FP16">
					<dim>1</dim>
					<dim>120</dim>
					<dim>1</dim>
					<dim>1</dim>
				</port>
			</output>
		</layer>
		<layer id="53" name="data_add_1242512430" type="Convert" version="opset1">
			<data destination_type="f32"/>
			<rt_info>
				<attribute name="decompression" version="0"/>
				<attribute name="fused_names" version="0" value="data_add_1242512430"/>
			</rt_info>
			<input>
				<port id="0" precision="FP16">
					<dim>1</dim>
					<dim>120</dim>
					<dim>1</dim>
					<dim>1</dim>
				</port>
			</input>
			<output>
				<port id="1" precision="FP32">
					<dim>1</dim>
					<dim>120</dim>
					<dim>1</dim>
					<dim>1</dim>
				</port>
			</output>
		</layer>
		<layer id="54" name="conv3_1/sep/bn/variance/Fused_Add_" type="Add" version="opset1">
			<data auto_broadcast="numpy"/>
			<rt_info>
				<attribute name="fused_names" version="0" value="conv3_1/sep/bn/variance/Fused_Add_"/>
			</rt_info>
			<input>
				<port id="0" precision="FP32">
					<dim>1</dim>
					<dim>120</dim>
					<dim>96</dim>
					<dim>168</dim>
				</port>
				<port id="1" precision="FP32">
					<dim>1</dim>
					<dim>120</dim>
					<dim>1</dim>
					<dim>1</dim>
				</port>
			</input>
			<output>
				<port id="2" precision="FP32" names="conv3_1/sep">
					<dim>1</dim>
					<dim>120</dim>
					<dim>96</dim>
					<dim>168</dim>
				</port>
			</output>
		</layer>
		<layer id="55" name="relu3_1/sep" type="ReLU" version="opset1">
			<rt_info>
				<attribute name="fused_names" version="0" value="relu3_1/sep"/>
			</rt_info>
			<input>
				<port id="0" precision="FP32">
					<dim>1</dim>
					<dim>120</dim>
					<dim>96</dim>
					<dim>168</dim>
				</port>
			</input>
			<output>
				<port id="1" precision="FP32" names="conv3_1/sep">
					<dim>1</dim>
					<dim>120</dim>
					<dim>96</dim>
					<dim>168</dim>
				</port>
			</output>
		</layer>
		<layer id="56" name="conv3_2/dw/bn/mean/Fused_Mul__copy_compressed" type="Const" version="opset1">
			<data element_type="f16" shape="120, 1, 1, 3, 3" offset="44888" size="2160"/>
			<output>
				<port id="0" precision="FP16">
					<dim>120</dim>
					<dim>1</dim>
					<dim>1</dim>
					<dim>3</dim>
					<dim>3</dim>
				</port>
			</output>
		</layer>
		<layer id="57" name="conv3_2/dw/bn/mean/Fused_Mul__copy" type="Convert" version="opset1">
			<data destination_type="f32"/>
			<rt_info>
				<attribute name="decompression" version="0"/>
				<attribute name="fused_names" version="0" value="conv3_2/dw/bn/mean/Fused_Mul__copy"/>
			</rt_info>
			<input>
				<port id="0" precision="FP16">
					<dim>120</dim>
					<dim>1</dim>
					<dim>1</dim>
					<dim>3</dim>
					<dim>3</dim>
				</port>
			</input>
			<output>
				<port id="1" precision="FP32">
					<dim>120</dim>
					<dim>1</dim>
					<dim>1</dim>
					<dim>3</dim>
					<dim>3</dim>
				</port>
			</output>
		</layer>
		<layer id="58" name="conv3_2/dw" type="GroupConvolution" version="opset1">
			<data strides="2, 2" pads_begin="1, 1" pads_end="1, 1" dilations="1, 1" auto_pad="explicit"/>
			<rt_info>
				<attribute name="fused_names" version="0" value="conv3_2/dw"/>
			</rt_info>
			<input>
				<port id="0" precision="FP32">
					<dim>1</dim>
					<dim>120</dim>
					<dim>96</dim>
					<dim>168</dim>
				</port>
				<port id="1" precision="FP32">
					<dim>120</dim>
					<dim>1</dim>
					<dim>1</dim>
					<dim>3</dim>
					<dim>3</dim>
				</port>
			</input>
			<output>
				<port id="2" precision="FP32">
					<dim>1</dim>
					<dim>120</dim>
					<dim>48</dim>
					<dim>84</dim>
				</port>
			</output>
		</layer>
		<layer id="59" name="data_add_1243312438_compressed" type="Const" version="opset1">
			<data element_type="f16" shape="1, 120, 1, 1" offset="47048" size="240"/>
			<output>
				<port id="0" precision="FP16">
					<dim>1</dim>
					<dim>120</dim>
					<dim>1</dim>
					<dim>1</dim>
				</port>
			</output>
		</layer>
		<layer id="60" name="data_add_1243312438" type="Convert" version="opset1">
			<data destination_type="f32"/>
			<rt_info>
				<attribute name="decompression" version="0"/>
				<attribute name="fused_names" version="0" value="data_add_1243312438"/>
			</rt_info>
			<input>
				<port id="0" precision="FP16">
					<dim>1</dim>
					<dim>120</dim>
					<dim>1</dim>
					<dim>1</dim>
				</port>
			</input>
			<output>
				<port id="1" precision="FP32">
					<dim>1</dim>
					<dim>120</dim>
					<dim>1</dim>
					<dim>1</dim>
				</port>
			</output>
		</layer>
		<layer id="61" name="conv3_2/dw/bn/variance/Fused_Add_" type="Add" version="opset1">
			<data auto_broadcast="numpy"/>
			<rt_info>
				<attribute name="fused_names" version="0" value="conv3_2/dw/bn/variance/Fused_Add_"/>
			</rt_info>
			<input>
				<port id="0" precision="FP32">
					<dim>1</dim>
					<dim>120</dim>
					<dim>48</dim>
					<dim>84</dim>
				</port>
				<port id="1" precision="FP32">
					<dim>1</dim>
					<dim>120</dim>
					<dim>1</dim>
					<dim>1</dim>
				</port>
			</input>
			<output>
				<port id="2" precision="FP32" names="conv3_2/dw">
					<dim>1</dim>
					<dim>120</dim>
					<dim>48</dim>
					<dim>84</dim>
				</port>
			</output>
		</layer>
		<layer id="62" name="relu3_2/dw" type="ReLU" version="opset1">
			<rt_info>
				<attribute name="fused_names" version="0" value="relu3_2/dw"/>
			</rt_info>
			<input>
				<port id="0" precision="FP32">
					<dim>1</dim>
					<dim>120</dim>
					<dim>48</dim>
					<dim>84</dim>
				</port>
			</input>
			<output>
				<port id="1" precision="FP32" names="conv3_2/dw">
					<dim>1</dim>
					<dim>120</dim>
					<dim>48</dim>
					<dim>84</dim>
				</port>
			</output>
		</layer>
		<layer id="63" name="conv3_2/sep/bn/mean/Fused_Mul__copy_compressed" type="Const" version="opset1">
			<data element_type="f16" shape="232, 120, 1, 1" offset="47288" size="55680"/>
			<output>
				<port id="0" precision="FP16">
					<dim>232</dim>
					<dim>120</dim>
					<dim>1</dim>
					<dim>1</dim>
				</port>
			</output>
		</layer>
		<layer id="64" name="conv3_2/sep/bn/mean/Fused_Mul__copy" type="Convert" version="opset1">
			<data destination_type="f32"/>
			<rt_info>
				<attribute name="decompression" version="0"/>
				<attribute name="fused_names" version="0" value="conv3_2/sep/bn/mean/Fused_Mul__copy"/>
			</rt_info>
			<input>
				<port id="0" precision="FP16">
					<dim>232</dim>
					<dim>120</dim>
					<dim>1</dim>
					<dim>1</dim>
				</port>
			</input>
			<output>
				<port id="1" precision="FP32">
					<dim>232</dim>
					<dim>120</dim>
					<dim>1</dim>
					<dim>1</dim>
				</port>
			</output>
		</layer>
		<layer id="65" name="conv3_2/sep" type="Convolution" version="opset1">
			<data strides="1, 1" dilations="1, 1" pads_begin="0, 0" pads_end="0, 0" auto_pad="explicit"/>
			<rt_info>
				<attribute name="fused_names" version="0" value="conv3_2/sep"/>
			</rt_info>
			<input>
				<port id="0" precision="FP32">
					<dim>1</dim>
					<dim>120</dim>
					<dim>48</dim>
					<dim>84</dim>
				</port>
				<port id="1" precision="FP32">
					<dim>232</dim>
					<dim>120</dim>
					<dim>1</dim>
					<dim>1</dim>
				</port>
			</input>
			<output>
				<port id="2" precision="FP32">
					<dim>1</dim>
					<dim>232</dim>
					<dim>48</dim>
					<dim>84</dim>
				</port>
			</output>
		</layer>
		<layer id="66" name="data_add_1244112446_compressed" type="Const" version="opset1">
			<data element_type="f16" shape="1, 232, 1, 1" offset="102968" size="464"/>
			<output>
				<port id="0" precision="FP16">
					<dim>1</dim>
					<dim>232</dim>
					<dim>1</dim>
					<dim>1</dim>
				</port>
			</output>
		</layer>
		<layer id="67" name="data_add_1244112446" type="Convert" version="opset1">
			<data destination_type="f32"/>
			<rt_info>
				<attribute name="decompression" version="0"/>
				<attribute name="fused_names" version="0" value="data_add_1244112446"/>
			</rt_info>
			<input>
				<port id="0" precision="FP16">
					<dim>1</dim>
					<dim>232</dim>
					<dim>1</dim>
					<dim>1</dim>
				</port>
			</input>
			<output>
				<port id="1" precision="FP32">
					<dim>1</dim>
					<dim>232</dim>
					<dim>1</dim>
					<dim>1</dim>
				</port>
			</output>
		</layer>
		<layer id="68" name="conv3_2/sep/bn/variance/Fused_Add_" type="Add" version="opset1">
			<data auto_broadcast="numpy"/>
			<rt_info>
				<attribute name="fused_names" version="0" value="conv3_2/sep/bn/variance/Fused_Add_"/>
			</rt_info>
			<input>
				<port id="0" precision="FP32">
					<dim>1</dim>
					<dim>232</dim>
					<dim>48</dim>
					<dim>84</dim>
				</port>
				<port id="1" precision="FP32">
					<dim>1</dim>
					<dim>232</dim>
					<dim>1</dim>
					<dim>1</dim>
				</port>
			</input>
			<output>
				<port id="2" precision="FP32" names="conv3_2/sep">
					<dim>1</dim>
					<dim>232</dim>
					<dim>48</dim>
					<dim>84</dim>
				</port>
			</output>
		</layer>
		<layer id="69" name="relu3_2/sep" type="ReLU" version="opset1">
			<rt_info>
				<attribute name="fused_names" version="0" value="relu3_2/sep"/>
			</rt_info>
			<input>
				<port id="0" precision="FP32">
					<dim>1</dim>
					<dim>232</dim>
					<dim>48</dim>
					<dim>84</dim>
				</port>
			</input>
			<output>
				<port id="1" precision="FP32" names="conv3_2/sep">
					<dim>1</dim>
					<dim>232</dim>
					<dim>48</dim>
					<dim>84</dim>
				</port>
			</output>
		</layer>
		<layer id="70" name="conv4_1/dw/bn/mean/Fused_Mul__copy_compressed" type="Const" version="opset1">
			<data element_type="f16" shape="232, 1, 1, 3, 3" offset="103432" size="4176"/>
			<output>
				<port id="0" precision="FP16">
					<dim>232</dim>
					<dim>1</dim>
					<dim>1</dim>
					<dim>3</dim>
					<dim>3</dim>
				</port>
			</output>
		</layer>
		<layer id="71" name="conv4_1/dw/bn/mean/Fused_Mul__copy" type="Convert" version="opset1">
			<data destination_type="f32"/>
			<rt_info>
				<attribute name="decompression" version="0"/>
				<attribute name="fused_names" version="0" value="conv4_1/dw/bn/mean/Fused_Mul__copy"/>
			</rt_info>
			<input>
				<port id="0" precision="FP16">
					<dim>232</dim>
					<dim>1</dim>
					<dim>1</dim>
					<dim>3</dim>
					<dim>3</dim>
				</port>
			</input>
			<output>
				<port id="1" precision="FP32">
					<dim>232</dim>
					<dim>1</dim>
					<dim>1</dim>
					<dim>3</dim>
					<dim>3</dim>
				</port>
			</output>
		</layer>
		<layer id="72" name="conv4_1/dw" type="GroupConvolution" version="opset1">
			<data strides="1, 1" pads_begin="1, 1" pads_end="1, 1" dilations="1, 1" auto_pad="explicit"/>
			<rt_info>
				<attribute name="fused_names" version="0" value="conv4_1/dw"/>
			</rt_info>
			<input>
				<port id="0" precision="FP32">
					<dim>1</dim>
					<dim>232</dim>
					<dim>48</dim>
					<dim>84</dim>
				</port>
				<port id="1" precision="FP32">
					<dim>232</dim>
					<dim>1</dim>
					<dim>1</dim>
					<dim>3</dim>
					<dim>3</dim>
				</port>
			</input>
			<output>
				<port id="2" precision="FP32">
					<dim>1</dim>
					<dim>232</dim>
					<dim>48</dim>
					<dim>84</dim>
				</port>
			</output>
		</layer>
		<layer id="73" name="data_add_1244912454_compressed" type="Const" version="opset1">
			<data element_type="f16" shape="1, 232, 1, 1" offset="107608" size="464"/>
			<output>
				<port id="0" precision="FP16">
					<dim>1</dim>
					<dim>232</dim>
					<dim>1</dim>
					<dim>1</dim>
				</port>
			</output>
		</layer>
		<layer id="74" name="data_add_1244912454" type="Convert" version="opset1">
			<data destination_type="f32"/>
			<rt_info>
				<attribute name="decompression" version="0"/>
				<attribute name="fused_names" version="0" value="data_add_1244912454"/>
			</rt_info>
			<input>
				<port id="0" precision="FP16">
					<dim>1</dim>
					<dim>232</dim>
					<dim>1</dim>
					<dim>1</dim>
				</port>
			</input>
			<output>
				<port id="1" precision="FP32">
					<dim>1</dim>
					<dim>232</dim>
					<dim>1</dim>
					<dim>1</dim>
				</port>
			</output>
		</layer>
		<layer id="75" name="conv4_1/dw/bn/variance/Fused_Add_" type="Add" version="opset1">
			<data auto_broadcast="numpy"/>
			<rt_info>
				<attribute name="fused_names" version="0" value="conv4_1/dw/bn/variance/Fused_Add_"/>
			</rt_info>
			<input>
				<port id="0" precision="FP32">
					<dim>1</dim>
					<dim>232</dim>
					<dim>48</dim>
					<dim>84</dim>
				</port>
				<port id="1" precision="FP32">
					<dim>1</dim>
					<dim>232</dim>
					<dim>1</dim>
					<dim>1</dim>
				</port>
			</input>
			<output>
				<port id="2" precision="FP32" names="conv4_1/dw">
					<dim>1</dim>
					<dim>232</dim>
					<dim>48</dim>
					<dim>84</dim>
				</port>
			</output>
		</layer>
		<layer id="76" name="relu4_1/dw" type="ReLU" version="opset1">
			<rt_info>
				<attribute name="fused_names" version="0" value="relu4_1/dw"/>
			</rt_info>
			<input>
				<port id="0" precision="FP32">
					<dim>1</dim>
					<dim>232</dim>
					<dim>48</dim>
					<dim>84</dim>
				</port>
			</input>
			<output>
				<port id="1" precision="FP32" names="conv4_1/dw">
					<dim>1</dim>
					<dim>232</dim>
					<dim>48</dim>
					<dim>84</dim>
				</port>
			</output>
		</layer>
		<layer id="77" name="conv4_1/sep/bn/mean/Fused_Mul__copy_compressed" type="Const" version="opset1">
			<data element_type="f16" shape="232, 232, 1, 1" offset="108072" size="107648"/>
			<output>
				<port id="0" precision="FP16">
					<dim>232</dim>
					<dim>232</dim>
					<dim>1</dim>
					<dim>1</dim>
				</port>
			</output>
		</layer>
		<layer id="78" name="conv4_1/sep/bn/mean/Fused_Mul__copy" type="Convert" version="opset1">
			<data destination_type="f32"/>
			<rt_info>
				<attribute name="decompression" version="0"/>
				<attribute name="fused_names" version="0" value="conv4_1/sep/bn/mean/Fused_Mul__copy"/>
			</rt_info>
			<input>
				<port id="0" precision="FP16">
					<dim>232</dim>
					<dim>232</dim>
					<dim>1</dim>
					<dim>1</dim>
				</port>
			</input>
			<output>
				<port id="1" precision="FP32">
					<dim>232</dim>
					<dim>232</dim>
					<dim>1</dim>
					<dim>1</dim>
				</port>
			</output>
		</layer>
		<layer id="79" name="conv4_1/sep" type="Convolution" version="opset1">
			<data strides="1, 1" dilations="1, 1" pads_begin="0, 0" pads_end="0, 0" auto_pad="explicit"/>
			<rt_info>
				<attribute name="fused_names" version="0" value="conv4_1/sep"/>
			</rt_info>
			<input>
				<port id="0" precision="FP32">
					<dim>1</dim>
					<dim>232</dim>
					<dim>48</dim>
					<dim>84</dim>
				</port>
				<port id="1" precision="FP32">
					<dim>232</dim>
					<dim>232</dim>
					<dim>1</dim>
					<dim>1</dim>
				</port>
			</input>
			<output>
				<port id="2" precision="FP32">
					<dim>1</dim>
					<dim>232</dim>
					<dim>48</dim>
					<dim>84</dim>
				</port>
			</output>
		</layer>
		<layer id="80" name="data_add_1245712462_compressed" type="Const" version="opset1">
			<data element_type="f16" shape="1, 232, 1, 1" offset="215720" size="464"/>
			<output>
				<port id="0" precision="FP16">
					<dim>1</dim>
					<dim>232</dim>
					<dim>1</dim>
					<dim>1</dim>
				</port>
			</output>
		</layer>
		<layer id="81" name="data_add_1245712462" type="Convert" version="opset1">
			<data destination_type="f32"/>
			<rt_info>
				<attribute name="decompression" version="0"/>
				<attribute name="fused_names" version="0" value="data_add_1245712462"/>
			</rt_info>
			<input>
				<port id="0" precision="FP16">
					<dim>1</dim>
					<dim>232</dim>
					<dim>1</dim>
					<dim>1</dim>
				</port>
			</input>
			<output>
				<port id="1" precision="FP32">
					<dim>1</dim>
					<dim>232</dim>
					<dim>1</dim>
					<dim>1</dim>
				</port>
			</output>
		</layer>
		<layer id="82" name="conv4_1/sep/bn/variance/Fused_Add_" type="Add" version="opset1">
			<data auto_broadcast="numpy"/>
			<rt_info>
				<attribute name="fused_names" version="0" value="conv4_1/sep/bn/variance/Fused_Add_"/>
			</rt_info>
			<input>
				<port id="0" precision="FP32">
					<dim>1</dim>
					<dim>232</dim>
					<dim>48</dim>
					<dim>84</dim>
				</port>
				<port id="1" precision="FP32">
					<dim>1</dim>
					<dim>232</dim>
					<dim>1</dim>
					<dim>1</dim>
				</port>
			</input>
			<output>
				<port id="2" precision="FP32" names="conv4_1/sep">
					<dim>1</dim>
					<dim>232</dim>
					<dim>48</dim>
					<dim>84</dim>
				</port>
			</output>
		</layer>
		<layer id="83" name="relu4_1/sep" type="ReLU" version="opset1">
			<rt_info>
				<attribute name="fused_names" version="0" value="relu4_1/sep"/>
			</rt_info>
			<input>
				<port id="0" precision="FP32">
					<dim>1</dim>
					<dim>232</dim>
					<dim>48</dim>
					<dim>84</dim>
				</port>
			</input>
			<output>
				<port id="1" precision="FP32" names="conv4_1/sep">
					<dim>1</dim>
					<dim>232</dim>
					<dim>48</dim>
					<dim>84</dim>
				</port>
			</output>
		</layer>
		<layer id="84" name="conv4_2/dw/bn/mean/Fused_Mul__copy_compressed" type="Const" version="opset1">
			<data element_type="f16" shape="232, 1, 1, 3, 3" offset="216184" size="4176"/>
			<output>
				<port id="0" precision="FP16">
					<dim>232</dim>
					<dim>1</dim>
					<dim>1</dim>
					<dim>3</dim>
					<dim>3</dim>
				</port>
			</output>
		</layer>
		<layer id="85" name="conv4_2/dw/bn/mean/Fused_Mul__copy" type="Convert" version="opset1">
			<data destination_type="f32"/>
			<rt_info>
				<attribute name="decompression" version="0"/>
				<attribute name="fused_names" version="0" value="conv4_2/dw/bn/mean/Fused_Mul__copy"/>
			</rt_info>
			<input>
				<port id="0" precision="FP16">
					<dim>232</dim>
					<dim>1</dim>
					<dim>1</dim>
					<dim>3</dim>
					<dim>3</dim>
				</port>
			</input>
			<output>
				<port id="1" precision="FP32">
					<dim>232</dim>
					<dim>1</dim>
					<dim>1</dim>
					<dim>3</dim>
					<dim>3</dim>
				</port>
			</output>
		</layer>
		<layer id="86" name="conv4_2/dw" type="GroupConvolution" version="opset1">
			<data strides="2, 2" pads_begin="1, 1" pads_end="1, 1" dilations="1, 1" auto_pad="explicit"/>
			<rt_info>
				<attribute name="fused_names" version="0" value="conv4_2/dw"/>
			</rt_info>
			<input>
				<port id="0" precision="FP32">
					<dim>1</dim>
					<dim>232</dim>
					<dim>48</dim>
					<dim>84</dim>
				</port>
				<port id="1" precision="FP32">
					<dim>232</dim>
					<dim>1</dim>
					<dim>1</dim>
					<dim>3</dim>
					<dim>3</dim>
				</port>
			</input>
			<output>
				<port id="2" precision="FP32">
					<dim>1</dim>
					<dim>232</dim>
					<dim>24</dim>
					<dim>42</dim>
				</port>
			</output>
		</layer>
		<layer id="87" name="data_add_1246512470_compressed" type="Const" version="opset1">
			<data element_type="f16" shape="1, 232, 1, 1" offset="220360" size="464"/>
			<output>
				<port id="0" precision="FP16">
					<dim>1</dim>
					<dim>232</dim>
					<dim>1</dim>
					<dim>1</dim>
				</port>
			</output>
		</layer>
		<layer id="88" name="data_add_1246512470" type="Convert" version="opset1">
			<data destination_type="f32"/>
			<rt_info>
				<attribute name="decompression" version="0"/>
				<attribute name="fused_names" version="0" value="data_add_1246512470"/>
			</rt_info>
			<input>
				<port id="0" precision="FP16">
					<dim>1</dim>
					<dim>232</dim>
					<dim>1</dim>
					<dim>1</dim>
				</port>
			</input>
			<output>
				<port id="1" precision="FP32">
					<dim>1</dim>
					<dim>232</dim>
					<dim>1</dim>
					<dim>1</dim>
				</port>
			</output>
		</layer>
		<layer id="89" name="conv4_2/dw/bn/variance/Fused_Add_" type="Add" version="opset1">
			<data auto_broadcast="numpy"/>
			<rt_info>
				<attribute name="fused_names" version="0" value="conv4_2/dw/bn/variance/Fused_Add_"/>
			</rt_info>
			<input>
				<port id="0" precision="FP32">
					<dim>1</dim>
					<dim>232</dim>
					<dim>24</dim>
					<dim>42</dim>
				</port>
				<port id="1" precision="FP32">
					<dim>1</dim>
					<dim>232</dim>
					<dim>1</dim>
					<dim>1</dim>
				</port>
			</input>
			<output>
				<port id="2" precision="FP32" names="conv4_2/dw">
					<dim>1</dim>
					<dim>232</dim>
					<dim>24</dim>
					<dim>42</dim>
				</port>
			</output>
		</layer>
		<layer id="90" name="relu4_2/dw" type="ReLU" version="opset1">
			<rt_info>
				<attribute name="fused_names" version="0" value="relu4_2/dw"/>
			</rt_info>
			<input>
				<port id="0" precision="FP32">
					<dim>1</dim>
					<dim>232</dim>
					<dim>24</dim>
					<dim>42</dim>
				</port>
			</input>
			<output>
				<port id="1" precision="FP32" names="conv4_2/dw">
					<dim>1</dim>
					<dim>232</dim>
					<dim>24</dim>
					<dim>42</dim>
				</port>
			</output>
		</layer>
		<layer id="91" name="conv4_2/sep/bn/mean/Fused_Mul__copy_compressed" type="Const" version="opset1">
			<data element_type="f16" shape="360, 232, 1, 1" offset="220824" size="167040"/>
			<output>
				<port id="0" precision="FP16">
					<dim>360</dim>
					<dim>232</dim>
					<dim>1</dim>
					<dim>1</dim>
				</port>
			</output>
		</layer>
		<layer id="92" name="conv4_2/sep/bn/mean/Fused_Mul__copy" type="Convert" version="opset1">
			<data destination_type="f32"/>
			<rt_info>
				<attribute name="decompression" version="0"/>
				<attribute name="fused_names" version="0" value="conv4_2/sep/bn/mean/Fused_Mul__copy"/>
			</rt_info>
			<input>
				<port id="0" precision="FP16">
					<dim>360</dim>
					<dim>232</dim>
					<dim>1</dim>
					<dim>1</dim>
				</port>
			</input>
			<output>
				<port id="1" precision="FP32">
					<dim>360</dim>
					<dim>232</dim>
					<dim>1</dim>
					<dim>1</dim>
				</port>
			</output>
		</layer>
		<layer id="93" name="conv4_2/sep" type="Convolution" version="opset1">
			<data strides="1, 1" dilations="1, 1" pads_begin="0, 0" pads_end="0, 0" auto_pad="explicit"/>
			<rt_info>
				<attribute name="fused_names" version="0" value="conv4_2/sep"/>
			</rt_info>
			<input>
				<port id="0" precision="FP32">
					<dim>1</dim>
					<dim>232</dim>
					<dim>24</dim>
					<dim>42</dim>
				</port>
				<port id="1" precision="FP32">
					<dim>360</dim>
					<dim>232</dim>
					<dim>1</dim>
					<dim>1</dim>
				</port>
			</input>
			<output>
				<port id="2" precision="FP32">
					<dim>1</dim>
					<dim>360</dim>
					<dim>24</dim>
					<dim>42</dim>
				</port>
			</output>
		</layer>
		<layer id="94" name="data_add_1247312478_compressed" type="Const" version="opset1">
			<data element_type="f16" shape="1, 360, 1, 1" offset="387864" size="720"/>
			<output>
				<port id="0" precision="FP16">
					<dim>1</dim>
					<dim>360</dim>
					<dim>1</dim>
					<dim>1</dim>
				</port>
			</output>
		</layer>
		<layer id="95" name="data_add_1247312478" type="Convert" version="opset1">
			<data destination_type="f32"/>
			<rt_info>
				<attribute name="decompression" version="0"/>
				<attribute name="fused_names" version="0" value="data_add_1247312478"/>
			</rt_info>
			<input>
				<port id="0" precision="FP16">
					<dim>1</dim>
					<dim>360</dim>
					<dim>1</dim>
					<dim>1</dim>
				</port>
			</input>
			<output>
				<port id="1" precision="FP32">
					<dim>1</dim>
					<dim>360</dim>
					<dim>1</dim>
					<dim>1</dim>
				</port>
			</output>
		</layer>
		<layer id="96" name="conv4_2/sep/bn/variance/Fused_Add_" type="Add" version="opset1">
			<data auto_broadcast="numpy"/>
			<rt_info>
				<attribute name="fused_names" version="0" value="conv4_2/sep/bn/variance/Fused_Add_"/>
			</rt_info>
			<input>
				<port id="0" precision="FP32">
					<dim>1</dim>
					<dim>360</dim>
					<dim>24</dim>
					<dim>42</dim>
				</port>
				<port id="1" precision="FP32">
					<dim>1</dim>
					<dim>360</dim>
					<dim>1</dim>
					<dim>1</dim>
				</port>
			</input>
			<output>
				<port id="2" precision="FP32" names="conv4_2/sep">
					<dim>1</dim>
					<dim>360</dim>
					<dim>24</dim>
					<dim>42</dim>
				</port>
			</output>
		</layer>
		<layer id="97" name="relu4_2/sep" type="ReLU" version="opset1">
			<rt_info>
				<attribute name="fused_names" version="0" value="relu4_2/sep"/>
			</rt_info>
			<input>
				<port id="0" precision="FP32">
					<dim>1</dim>
					<dim>360</dim>
					<dim>24</dim>
					<dim>42</dim>
				</port>
			</input>
			<output>
				<port id="1" precision="FP32" names="conv4_2/sep">
					<dim>1</dim>
					<dim>360</dim>
					<dim>24</dim>
					<dim>42</dim>
				</port>
			</output>
		</layer>
		<layer id="98" name="conv5_1/dw/bn/mean/Fused_Mul__copy_compressed" type="Const" version="opset1">
			<data element_type="f16" shape="360, 1, 1, 3, 3" offset="388584" size="6480"/>
			<output>
				<port id="0" precision="FP16">
					<dim>360</dim>
					<dim>1</dim>
					<dim>1</dim>
					<dim>3</dim>
					<dim>3</dim>
				</port>
			</output>
		</layer>
		<layer id="99" name="conv5_1/dw/bn/mean/Fused_Mul__copy" type="Convert" version="opset1">
			<data destination_type="f32"/>
			<rt_info>
				<attribute name="decompression" version="0"/>
				<attribute name="fused_names" version="0" value="conv5_1/dw/bn/mean/Fused_Mul__copy"/>
			</rt_info>
			<input>
				<port id="0" precision="FP16">
					<dim>360</dim>
					<dim>1</dim>
					<dim>1</dim>
					<dim>3</dim>
					<dim>3</dim>
				</port>
			</input>
			<output>
				<port id="1" precision="FP32">
					<dim>360</dim>
					<dim>1</dim>
					<dim>1</dim>
					<dim>3</dim>
					<dim>3</dim>
				</port>
			</output>
		</layer>
		<layer id="100" name="conv5_1/dw" type="GroupConvolution" version="opset1">
			<data strides="1, 1" pads_begin="1, 1" pads_end="1, 1" dilations="1, 1" auto_pad="explicit"/>
			<rt_info>
				<attribute name="fused_names" version="0" value="conv5_1/dw"/>
			</rt_info>
			<input>
				<port id="0" precision="FP32">
					<dim>1</dim>
					<dim>360</dim>
					<dim>24</dim>
					<dim>42</dim>
				</port>
				<port id="1" precision="FP32">
					<dim>360</dim>
					<dim>1</dim>
					<dim>1</dim>
					<dim>3</dim>
					<dim>3</dim>
				</port>
			</input>
			<output>
				<port id="2" precision="FP32">
					<dim>1</dim>
					<dim>360</dim>
					<dim>24</dim>
					<dim>42</dim>
				</port>
			</output>
		</layer>
		<layer id="101" name="data_add_1248112486_compressed" type="Const" version="opset1">
			<data element_type="f16" shape="1, 360, 1, 1" offset="395064" size="720"/>
			<output>
				<port id="0" precision="FP16">
					<dim>1</dim>
					<dim>360</dim>
					<dim>1</dim>
					<dim>1</dim>
				</port>
			</output>
		</layer>
		<layer id="102" name="data_add_1248112486" type="Convert" version="opset1">
			<data destination_type="f32"/>
			<rt_info>
				<attribute name="decompression" version="0"/>
				<attribute name="fused_names" version="0" value="data_add_1248112486"/>
			</rt_info>
			<input>
				<port id="0" precision="FP16">
					<dim>1</dim>
					<dim>360</dim>
					<dim>1</dim>
					<dim>1</dim>
				</port>
			</input>
			<output>
				<port id="1" precision="FP32">
					<dim>1</dim>
					<dim>360</dim>
					<dim>1</dim>
					<dim>1</dim>
				</port>
			</output>
		</layer>
		<layer id="103" name="conv5_1/dw/bn/variance/Fused_Add_" type="Add" version="opset1">
			<data auto_broadcast="numpy"/>
			<rt_info>
				<attribute name="fused_names" version="0" value="conv5_1/dw/bn/variance/Fused_Add_"/>
			</rt_info>
			<input>
				<port id="0" precision="FP32">
					<dim>1</dim>
					<dim>360</dim>
					<dim>24</dim>
					<dim>42</dim>
				</port>
				<port id="1" precision="FP32">
					<dim>1</dim>
					<dim>360</dim>
					<dim>1</dim>
					<dim>1</dim>
				</port>
			</input>
			<output>
				<port id="2" precision="FP32" names="conv5_1/dw">
					<dim>1</dim>
					<dim>360</dim>
					<dim>24</dim>
					<dim>42</dim>
				</port>
			</output>
		</layer>
		<layer id="104" name="relu5_1/dw" type="ReLU" version="opset1">
			<rt_info>
				<attribute name="fused_names" version="0" value="relu5_1/dw"/>
			</rt_info>
			<input>
				<port id="0" precision="FP32">
					<dim>1</dim>
					<dim>360</dim>
					<dim>24</dim>
					<dim>42</dim>
				</port>
			</input>
			<output>
				<port id="1" precision="FP32" names="conv5_1/dw">
					<dim>1</dim>
					<dim>360</dim>
					<dim>24</dim>
					<dim>42</dim>
				</port>
			</output>
		</layer>
		<layer id="105" name="conv5_1/sep/bn/mean/Fused_Mul__copy_compressed" type="Const" version="opset1">
			<data element_type="f16" shape="328, 360, 1, 1" offset="395784" size="236160"/>
			<output>
				<port id="0" precision="FP16">
					<dim>328</dim>
					<dim>360</dim>
					<dim>1</dim>
					<dim>1</dim>
				</port>
			</output>
		</layer>
		<layer id="106" name="conv5_1/sep/bn/mean/Fused_Mul__copy" type="Convert" version="opset1">
			<data destination_type="f32"/>
			<rt_info>
				<attribute name="decompression" version="0"/>
				<attribute name="fused_names" version="0" value="conv5_1/sep/bn/mean/Fused_Mul__copy"/>
			</rt_info>
			<input>
				<port id="0" precision="FP16">
					<dim>328</dim>
					<dim>360</dim>
					<dim>1</dim>
					<dim>1</dim>
				</port>
			</input>
			<output>
				<port id="1" precision="FP32">
					<dim>328</dim>
					<dim>360</dim>
					<dim>1</dim>
					<dim>1</dim>
				</port>
			</output>
		</layer>
		<layer id="107" name="conv5_1/sep" type="Convolution" version="opset1">
			<data strides="1, 1" dilations="1, 1" pads_begin="0, 0" pads_end="0, 0" auto_pad="explicit"/>
			<rt_info>
				<attribute name="fused_names" version="0" value="conv5_1/sep"/>
			</rt_info>
			<input>
				<port id="0" precision="FP32">
					<dim>1</dim>
					<dim>360</dim>
					<dim>24</dim>
					<dim>42</dim>
				</port>
				<port id="1" precision="FP32">
					<dim>328</dim>
					<dim>360</dim>
					<dim>1</dim>
					<dim>1</dim>
				</port>
			</input>
			<output>
				<port id="2" precision="FP32">
					<dim>1</dim>
					<dim>328</dim>
					<dim>24</dim>
					<dim>42</dim>
				</port>
			</output>
		</layer>
		<layer id="108" name="data_add_1248912494_compressed" type="Const" version="opset1">
			<data element_type="f16" shape="1, 328, 1, 1" offset="631944" size="656"/>
			<output>
				<port id="0" precision="FP16">
					<dim>1</dim>
					<dim>328</dim>
					<dim>1</dim>
					<dim>1</dim>
				</port>
			</output>
		</layer>
		<layer id="109" name="data_add_1248912494" type="Convert" version="opset1">
			<data destination_type="f32"/>
			<rt_info>
				<attribute name="decompression" version="0"/>
				<attribute name="fused_names" version="0" value="data_add_1248912494"/>
			</rt_info>
			<input>
				<port id="0" precision="FP16">
					<dim>1</dim>
					<dim>328</dim>
					<dim>1</dim>
					<dim>1</dim>
				</port>
			</input>
			<output>
				<port id="1" precision="FP32">
					<dim>1</dim>
					<dim>328</dim>
					<dim>1</dim>
					<dim>1</dim>
				</port>
			</output>
		</layer>
		<layer id="110" name="conv5_1/sep/bn/variance/Fused_Add_" type="Add" version="opset1">
			<data auto_broadcast="numpy"/>
			<rt_info>
				<attribute name="fused_names" version="0" value="conv5_1/sep/bn/variance/Fused_Add_"/>
			</rt_info>
			<input>
				<port id="0" precision="FP32">
					<dim>1</dim>
					<dim>328</dim>
					<dim>24</dim>
					<dim>42</dim>
				</port>
				<port id="1" precision="FP32">
					<dim>1</dim>
					<dim>328</dim>
					<dim>1</dim>
					<dim>1</dim>
				</port>
			</input>
			<output>
				<port id="2" precision="FP32" names="conv5_1/sep">
					<dim>1</dim>
					<dim>328</dim>
					<dim>24</dim>
					<dim>42</dim>
				</port>
			</output>
		</layer>
		<layer id="111" name="relu5_1/sep" type="ReLU" version="opset1">
			<rt_info>
				<attribute name="fused_names" version="0" value="relu5_1/sep"/>
			</rt_info>
			<input>
				<port id="0" precision="FP32">
					<dim>1</dim>
					<dim>328</dim>
					<dim>24</dim>
					<dim>42</dim>
				</port>
			</input>
			<output>
				<port id="1" precision="FP32" names="conv5_1/sep">
					<dim>1</dim>
					<dim>328</dim>
					<dim>24</dim>
					<dim>42</dim>
				</port>
			</output>
		</layer>
		<layer id="112" name="conv5_2/dw/bn/mean/Fused_Mul__copy_compressed" type="Const" version="opset1">
			<data element_type="f16" shape="328, 1, 1, 3, 3" offset="632600" size="5904"/>
			<output>
				<port id="0" precision="FP16">
					<dim>328</dim>
					<dim>1</dim>
					<dim>1</dim>
					<dim>3</dim>
					<dim>3</dim>
				</port>
			</output>
		</layer>
		<layer id="113" name="conv5_2/dw/bn/mean/Fused_Mul__copy" type="Convert" version="opset1">
			<data destination_type="f32"/>
			<rt_info>
				<attribute name="decompression" version="0"/>
				<attribute name="fused_names" version="0" value="conv5_2/dw/bn/mean/Fused_Mul__copy"/>
			</rt_info>
			<input>
				<port id="0" precision="FP16">
					<dim>328</dim>
					<dim>1</dim>
					<dim>1</dim>
					<dim>3</dim>
					<dim>3</dim>
				</port>
			</input>
			<output>
				<port id="1" precision="FP32">
					<dim>328</dim>
					<dim>1</dim>
					<dim>1</dim>
					<dim>3</dim>
					<dim>3</dim>
				</port>
			</output>
		</layer>
		<layer id="114" name="conv5_2/dw" type="GroupConvolution" version="opset1">
			<data strides="1, 1" pads_begin="1, 1" pads_end="1, 1" dilations="1, 1" auto_pad="explicit"/>
			<rt_info>
				<attribute name="fused_names" version="0" value="conv5_2/dw"/>
			</rt_info>
			<input>
				<port id="0" precision="FP32">
					<dim>1</dim>
					<dim>328</dim>
					<dim>24</dim>
					<dim>42</dim>
				</port>
				<port id="1" precision="FP32">
					<dim>328</dim>
					<dim>1</dim>
					<dim>1</dim>
					<dim>3</dim>
					<dim>3</dim>
				</port>
			</input>
			<output>
				<port id="2" precision="FP32">
					<dim>1</dim>
					<dim>328</dim>
					<dim>24</dim>
					<dim>42</dim>
				</port>
			</output>
		</layer>
		<layer id="115" name="data_add_1249712502_compressed" type="Const" version="opset1">
			<data element_type="f16" shape="1, 328, 1, 1" offset="638504" size="656"/>
			<output>
				<port id="0" precision="FP16">
					<dim>1</dim>
					<dim>328</dim>
					<dim>1</dim>
					<dim>1</dim>
				</port>
			</output>
		</layer>
		<layer id="116" name="data_add_1249712502" type="Convert" version="opset1">
			<data destination_type="f32"/>
			<rt_info>
				<attribute name="decompression" version="0"/>
				<attribute name="fused_names" version="0" value="data_add_1249712502"/>
			</rt_info>
			<input>
				<port id="0" precision="FP16">
					<dim>1</dim>
					<dim>328</dim>
					<dim>1</dim>
					<dim>1</dim>
				</port>
			</input>
			<output>
				<port id="1" precision="FP32">
					<dim>1</dim>
					<dim>328</dim>
					<dim>1</dim>
					<dim>1</dim>
				</port>
			</output>
		</layer>
		<layer id="117" name="conv5_2/dw/bn/variance/Fused_Add_" type="Add" version="opset1">
			<data auto_broadcast="numpy"/>
			<rt_info>
				<attribute name="fused_names" version="0" value="conv5_2/dw/bn/variance/Fused_Add_"/>
			</rt_info>
			<input>
				<port id="0" precision="FP32">
					<dim>1</dim>
					<dim>328</dim>
					<dim>24</dim>
					<dim>42</dim>
				</port>
				<port id="1" precision="FP32">
					<dim>1</dim>
					<dim>328</dim>
					<dim>1</dim>
					<dim>1</dim>
				</port>
			</input>
			<output>
				<port id="2" precision="FP32" names="conv5_2/dw">
					<dim>1</dim>
					<dim>328</dim>
					<dim>24</dim>
					<dim>42</dim>
				</port>
			</output>
		</layer>
		<layer id="118" name="relu5_2/dw" type="ReLU" version="opset1">
			<rt_info>
				<attribute name="fused_names" version="0" value="relu5_2/dw"/>
			</rt_info>
			<input>
				<port id="0" precision="FP32">
					<dim>1</dim>
					<dim>328</dim>
					<dim>24</dim>
					<dim>42</dim>
				</port>
			</input>
			<output>
				<port id="1" precision="FP32" names="conv5_2/dw">
					<dim>1</dim>
					<dim>328</dim>
					<dim>24</dim>
					<dim>42</dim>
				</port>
			</output>
		</layer>
		<layer id="119" name="conv5_2/sep/bn/mean/Fused_Mul__copy_compressed" type="Const" version="opset1">
			<data element_type="f16" shape="304, 328, 1, 1" offset="639160" size="199424"/>
			<output>
				<port id="0" precision="FP16">
					<dim>304</dim>
					<dim>328</dim>
					<dim>1</dim>
					<dim>1</dim>
				</port>
			</output>
		</layer>
		<layer id="120" name="conv5_2/sep/bn/mean/Fused_Mul__copy" type="Convert" version="opset1">
			<data destination_type="f32"/>
			<rt_info>
				<attribute name="decompression" version="0"/>
				<attribute name="fused_names" version="0" value="conv5_2/sep/bn/mean/Fused_Mul__copy"/>
			</rt_info>
			<input>
				<port id="0" precision="FP16">
					<dim>304</dim>
					<dim>328</dim>
					<dim>1</dim>
					<dim>1</dim>
				</port>
			</input>
			<output>
				<port id="1" precision="FP32">
					<dim>304</dim>
					<dim>328</dim>
					<dim>1</dim>
					<dim>1</dim>
				</port>
			</output>
		</layer>
		<layer id="121" name="conv5_2/sep" type="Convolution" version="opset1">
			<data strides="1, 1" dilations="1, 1" pads_begin="0, 0" pads_end="0, 0" auto_pad="explicit"/>
			<rt_info>
				<attribute name="fused_names" version="0" value="conv5_2/sep"/>
			</rt_info>
			<input>
				<port id="0" precision="FP32">
					<dim>1</dim>
					<dim>328</dim>
					<dim>24</dim>
					<dim>42</dim>
				</port>
				<port id="1" precision="FP32">
					<dim>304</dim>
					<dim>328</dim>
					<dim>1</dim>
					<dim>1</dim>
				</port>
			</input>
			<output>
				<port id="2" precision="FP32">
					<dim>1</dim>
					<dim>304</dim>
					<dim>24</dim>
					<dim>42</dim>
				</port>
			</output>
		</layer>
		<layer id="122" name="data_add_1250512510_compressed" type="Const" version="opset1">
			<data element_type="f16" shape="1, 304, 1, 1" offset="838584" size="608"/>
			<output>
				<port id="0" precision="FP16">
					<dim>1</dim>
					<dim>304</dim>
					<dim>1</dim>
					<dim>1</dim>
				</port>
			</output>
		</layer>
		<layer id="123" name="data_add_1250512510" type="Convert" version="opset1">
			<data destination_type="f32"/>
			<rt_info>
				<attribute name="decompression" version="0"/>
				<attribute name="fused_names" version="0" value="data_add_1250512510"/>
			</rt_info>
			<input>
				<port id="0" precision="FP16">
					<dim>1</dim>
					<dim>304</dim>
					<dim>1</dim>
					<dim>1</dim>
				</port>
			</input>
			<output>
				<port id="1" precision="FP32">
					<dim>1</dim>
					<dim>304</dim>
					<dim>1</dim>
					<dim>1</dim>
				</port>
			</output>
		</layer>
		<layer id="124" name="conv5_2/sep/bn/variance/Fused_Add_" type="Add" version="opset1">
			<data auto_broadcast="numpy"/>
			<rt_info>
				<attribute name="fused_names" version="0" value="conv5_2/sep/bn/variance/Fused_Add_"/>
			</rt_info>
			<input>
				<port id="0" precision="FP32">
					<dim>1</dim>
					<dim>304</dim>
					<dim>24</dim>
					<dim>42</dim>
				</port>
				<port id="1" precision="FP32">
					<dim>1</dim>
					<dim>304</dim>
					<dim>1</dim>
					<dim>1</dim>
				</port>
			</input>
			<output>
				<port id="2" precision="FP32" names="conv5_2/sep">
					<dim>1</dim>
					<dim>304</dim>
					<dim>24</dim>
					<dim>42</dim>
				</port>
			</output>
		</layer>
		<layer id="125" name="relu5_2/sep" type="ReLU" version="opset1">
			<rt_info>
				<attribute name="fused_names" version="0" value="relu5_2/sep"/>
			</rt_info>
			<input>
				<port id="0" precision="FP32">
					<dim>1</dim>
					<dim>304</dim>
					<dim>24</dim>
					<dim>42</dim>
				</port>
			</input>
			<output>
				<port id="1" precision="FP32" names="conv5_2/sep">
					<dim>1</dim>
					<dim>304</dim>
					<dim>24</dim>
					<dim>42</dim>
				</port>
			</output>
		</layer>
		<layer id="126" name="conv5_3/dw/bn/mean/Fused_Mul__copy_compressed" type="Const" version="opset1">
			<data element_type="f16" shape="304, 1, 1, 3, 3" offset="839192" size="5472"/>
			<output>
				<port id="0" precision="FP16">
					<dim>304</dim>
					<dim>1</dim>
					<dim>1</dim>
					<dim>3</dim>
					<dim>3</dim>
				</port>
			</output>
		</layer>
		<layer id="127" name="conv5_3/dw/bn/mean/Fused_Mul__copy" type="Convert" version="opset1">
			<data destination_type="f32"/>
			<rt_info>
				<attribute name="decompression" version="0"/>
				<attribute name="fused_names" version="0" value="conv5_3/dw/bn/mean/Fused_Mul__copy"/>
			</rt_info>
			<input>
				<port id="0" precision="FP16">
					<dim>304</dim>
					<dim>1</dim>
					<dim>1</dim>
					<dim>3</dim>
					<dim>3</dim>
				</port>
			</input>
			<output>
				<port id="1" precision="FP32">
					<dim>304</dim>
					<dim>1</dim>
					<dim>1</dim>
					<dim>3</dim>
					<dim>3</dim>
				</port>
			</output>
		</layer>
		<layer id="128" name="conv5_3/dw" type="GroupConvolution" version="opset1">
			<data strides="1, 1" pads_begin="1, 1" pads_end="1, 1" dilations="1, 1" auto_pad="explicit"/>
			<rt_info>
				<attribute name="fused_names" version="0" value="conv5_3/dw"/>
			</rt_info>
			<input>
				<port id="0" precision="FP32">
					<dim>1</dim>
					<dim>304</dim>
					<dim>24</dim>
					<dim>42</dim>
				</port>
				<port id="1" precision="FP32">
					<dim>304</dim>
					<dim>1</dim>
					<dim>1</dim>
					<dim>3</dim>
					<dim>3</dim>
				</port>
			</input>
			<output>
				<port id="2" precision="FP32">
					<dim>1</dim>
					<dim>304</dim>
					<dim>24</dim>
					<dim>42</dim>
				</port>
			</output>
		</layer>
		<layer id="129" name="data_add_1251312518_compressed" type="Const" version="opset1">
			<data element_type="f16" shape="1, 304, 1, 1" offset="844664" size="608"/>
			<output>
				<port id="0" precision="FP16">
					<dim>1</dim>
					<dim>304</dim>
					<dim>1</dim>
					<dim>1</dim>
				</port>
			</output>
		</layer>
		<layer id="130" name="data_add_1251312518" type="Convert" version="opset1">
			<data destination_type="f32"/>
			<rt_info>
				<attribute name="decompression" version="0"/>
				<attribute name="fused_names" version="0" value="data_add_1251312518"/>
			</rt_info>
			<input>
				<port id="0" precision="FP16">
					<dim>1</dim>
					<dim>304</dim>
					<dim>1</dim>
					<dim>1</dim>
				</port>
			</input>
			<output>
				<port id="1" precision="FP32">
					<dim>1</dim>
					<dim>304</dim>
					<dim>1</dim>
					<dim>1</dim>
				</port>
			</output>
		</layer>
		<layer id="131" name="conv5_3/dw/bn/variance/Fused_Add_" type="Add" version="opset1">
			<data auto_broadcast="numpy"/>
			<rt_info>
				<attribute name="fused_names" version="0" value="conv5_3/dw/bn/variance/Fused_Add_"/>
			</rt_info>
			<input>
				<port id="0" precision="FP32">
					<dim>1</dim>
					<dim>304</dim>
					<dim>24</dim>
					<dim>42</dim>
				</port>
				<port id="1" precision="FP32">
					<dim>1</dim>
					<dim>304</dim>
					<dim>1</dim>
					<dim>1</dim>
				</port>
			</input>
			<output>
				<port id="2" precision="FP32" names="conv5_3/dw">
					<dim>1</dim>
					<dim>304</dim>
					<dim>24</dim>
					<dim>42</dim>
				</port>
			</output>
		</layer>
		<layer id="132" name="relu5_3/dw" type="ReLU" version="opset1">
			<rt_info>
				<attribute name="fused_names" version="0" value="relu5_3/dw"/>
			</rt_info>
			<input>
				<port id="0" precision="FP32">
					<dim>1</dim>
					<dim>304</dim>
					<dim>24</dim>
					<dim>42</dim>
				</port>
			</input>
			<output>
				<port id="1" precision="FP32" names="conv5_3/dw">
					<dim>1</dim>
					<dim>304</dim>
					<dim>24</dim>
					<dim>42</dim>
				</port>
			</output>
		</layer>
		<layer id="133" name="conv5_3/sep/bn/mean/Fused_Mul__copy_compressed" type="Const" version="opset1">
			<data element_type="f16" shape="248, 304, 1, 1" offset="845272" size="150784"/>
			<output>
				<port id="0" precision="FP16">
					<dim>248</dim>
					<dim>304</dim>
					<dim>1</dim>
					<dim>1</dim>
				</port>
			</output>
		</layer>
		<layer id="134" name="conv5_3/sep/bn/mean/Fused_Mul__copy" type="Convert" version="opset1">
			<data destination_type="f32"/>
			<rt_info>
				<attribute name="decompression" version="0"/>
				<attribute name="fused_names" version="0" value="conv5_3/sep/bn/mean/Fused_Mul__copy"/>
			</rt_info>
			<input>
				<port id="0" precision="FP16">
					<dim>248</dim>
					<dim>304</dim>
					<dim>1</dim>
					<dim>1</dim>
				</port>
			</input>
			<output>
				<port id="1" precision="FP32">
					<dim>248</dim>
					<dim>304</dim>
					<dim>1</dim>
					<dim>1</dim>
				</port>
			</output>
		</layer>
		<layer id="135" name="conv5_3/sep" type="Convolution" version="opset1">
			<data strides="1, 1" dilations="1, 1" pads_begin="0, 0" pads_end="0, 0" auto_pad="explicit"/>
			<rt_info>
				<attribute name="fused_names" version="0" value="conv5_3/sep"/>
			</rt_info>
			<input>
				<port id="0" precision="FP32">
					<dim>1</dim>
					<dim>304</dim>
					<dim>24</dim>
					<dim>42</dim>
				</port>
				<port id="1" precision="FP32">
					<dim>248</dim>
					<dim>304</dim>
					<dim>1</dim>
					<dim>1</dim>
				</port>
			</input>
			<output>
				<port id="2" precision="FP32">
					<dim>1</dim>
					<dim>248</dim>
					<dim>24</dim>
					<dim>42</dim>
				</port>
			</output>
		</layer>
		<layer id="136" name="data_add_1252112526_compressed" type="Const" version="opset1">
			<data element_type="f16" shape="1, 248, 1, 1" offset="996056" size="496"/>
			<output>
				<port id="0" precision="FP16">
					<dim>1</dim>
					<dim>248</dim>
					<dim>1</dim>
					<dim>1</dim>
				</port>
			</output>
		</layer>
		<layer id="137" name="data_add_1252112526" type="Convert" version="opset1">
			<data destination_type="f32"/>
			<rt_info>
				<attribute name="decompression" version="0"/>
				<attribute name="fused_names" version="0" value="data_add_1252112526"/>
			</rt_info>
			<input>
				<port id="0" precision="FP16">
					<dim>1</dim>
					<dim>248</dim>
					<dim>1</dim>
					<dim>1</dim>
				</port>
			</input>
			<output>
				<port id="1" precision="FP32">
					<dim>1</dim>
					<dim>248</dim>
					<dim>1</dim>
					<dim>1</dim>
				</port>
			</output>
		</layer>
		<layer id="138" name="conv5_3/sep/bn/variance/Fused_Add_" type="Add" version="opset1">
			<data auto_broadcast="numpy"/>
			<rt_info>
				<attribute name="fused_names" version="0" value="conv5_3/sep/bn/variance/Fused_Add_"/>
			</rt_info>
			<input>
				<port id="0" precision="FP32">
					<dim>1</dim>
					<dim>248</dim>
					<dim>24</dim>
					<dim>42</dim>
				</port>
				<port id="1" precision="FP32">
					<dim>1</dim>
					<dim>248</dim>
					<dim>1</dim>
					<dim>1</dim>
				</port>
			</input>
			<output>
				<port id="2" precision="FP32" names="conv5_3/sep">
					<dim>1</dim>
					<dim>248</dim>
					<dim>24</dim>
					<dim>42</dim>
				</port>
			</output>
		</layer>
		<layer id="139" name="relu5_3/sep" type="ReLU" version="opset1">
			<rt_info>
				<attribute name="fused_names" version="0" value="relu5_3/sep"/>
			</rt_info>
			<input>
				<port id="0" precision="FP32">
					<dim>1</dim>
					<dim>248</dim>
					<dim>24</dim>
					<dim>42</dim>
				</port>
			</input>
			<output>
				<port id="1" precision="FP32" names="conv5_3/sep">
					<dim>1</dim>
					<dim>248</dim>
					<dim>24</dim>
					<dim>42</dim>
				</port>
			</output>
		</layer>
		<layer id="140" name="conv5_4/dw/bn/mean/Fused_Mul__copy_compressed" type="Const" version="opset1">
			<data element_type="f16" shape="248, 1, 1, 3, 3" offset="996552" size="4464"/>
			<output>
				<port id="0" precision="FP16">
					<dim>248</dim>
					<dim>1</dim>
					<dim>1</dim>
					<dim>3</dim>
					<dim>3</dim>
				</port>
			</output>
		</layer>
		<layer id="141" name="conv5_4/dw/bn/mean/Fused_Mul__copy" type="Convert" version="opset1">
			<data destination_type="f32"/>
			<rt_info>
				<attribute name="decompression" version="0"/>
				<attribute name="fused_names" version="0" value="conv5_4/dw/bn/mean/Fused_Mul__copy"/>
			</rt_info>
			<input>
				<port id="0" precision="FP16">
					<dim>248</dim>
					<dim>1</dim>
					<dim>1</dim>
					<dim>3</dim>
					<dim>3</dim>
				</port>
			</input>
			<output>
				<port id="1" precision="FP32">
					<dim>248</dim>
					<dim>1</dim>
					<dim>1</dim>
					<dim>3</dim>
					<dim>3</dim>
				</port>
			</output>
		</layer>
		<layer id="142" name="conv5_4/dw" type="GroupConvolution" version="opset1">
			<data strides="1, 1" pads_begin="1, 1" pads_end="1, 1" dilations="1, 1" auto_pad="explicit"/>
			<rt_info>
				<attribute name="fused_names" version="0" value="conv5_4/dw"/>
			</rt_info>
			<input>
				<port id="0" precision="FP32">
					<dim>1</dim>
					<dim>248</dim>
					<dim>24</dim>
					<dim>42</dim>
				</port>
				<port id="1" precision="FP32">
					<dim>248</dim>
					<dim>1</dim>
					<dim>1</dim>
					<dim>3</dim>
					<dim>3</dim>
				</port>
			</input>
			<output>
				<port id="2" precision="FP32">
					<dim>1</dim>
					<dim>248</dim>
					<dim>24</dim>
					<dim>42</dim>
				</port>
			</output>
		</layer>
		<layer id="143" name="data_add_1252912534_compressed" type="Const" version="opset1">
			<data element_type="f16" shape="1, 248, 1, 1" offset="1001016" size="496"/>
			<output>
				<port id="0" precision="FP16">
					<dim>1</dim>
					<dim>248</dim>
					<dim>1</dim>
					<dim>1</dim>
				</port>
			</output>
		</layer>
		<layer id="144" name="data_add_1252912534" type="Convert" version="opset1">
			<data destination_type="f32"/>
			<rt_info>
				<attribute name="decompression" version="0"/>
				<attribute name="fused_names" version="0" value="data_add_1252912534"/>
			</rt_info>
			<input>
				<port id="0" precision="FP16">
					<dim>1</dim>
					<dim>248</dim>
					<dim>1</dim>
					<dim>1</dim>
				</port>
			</input>
			<output>
				<port id="1" precision="FP32">
					<dim>1</dim>
					<dim>248</dim>
					<dim>1</dim>
					<dim>1</dim>
				</port>
			</output>
		</layer>
		<layer id="145" name="conv5_4/dw/bn/variance/Fused_Add_" type="Add" version="opset1">
			<data auto_broadcast="numpy"/>
			<rt_info>
				<attribute name="fused_names" version="0" value="conv5_4/dw/bn/variance/Fused_Add_"/>
			</rt_info>
			<input>
				<port id="0" precision="FP32">
					<dim>1</dim>
					<dim>248</dim>
					<dim>24</dim>
					<dim>42</dim>
				</port>
				<port id="1" precision="FP32">
					<dim>1</dim>
					<dim>248</dim>
					<dim>1</dim>
					<dim>1</dim>
				</port>
			</input>
			<output>
				<port id="2" precision="FP32" names="conv5_4/dw">
					<dim>1</dim>
					<dim>248</dim>
					<dim>24</dim>
					<dim>42</dim>
				</port>
			</output>
		</layer>
		<layer id="146" name="relu5_4/dw" type="ReLU" version="opset1">
			<rt_info>
				<attribute name="fused_names" version="0" value="relu5_4/dw"/>
			</rt_info>
			<input>
				<port id="0" precision="FP32">
					<dim>1</dim>
					<dim>248</dim>
					<dim>24</dim>
					<dim>42</dim>
				</port>
			</input>
			<output>
				<port id="1" precision="FP32" names="conv5_4/dw">
					<dim>1</dim>
					<dim>248</dim>
					<dim>24</dim>
					<dim>42</dim>
				</port>
			</output>
		</layer>
		<layer id="147" name="conv5_4/sep/bn/mean/Fused_Mul__copy_compressed" type="Const" version="opset1">
			<data element_type="f16" shape="224, 248, 1, 1" offset="1001512" size="111104"/>
			<output>
				<port id="0" precision="FP16">
					<dim>224</dim>
					<dim>248</dim>
					<dim>1</dim>
					<dim>1</dim>
				</port>
			</output>
		</layer>
		<layer id="148" name="conv5_4/sep/bn/mean/Fused_Mul__copy" type="Convert" version="opset1">
			<data destination_type="f32"/>
			<rt_info>
				<attribute name="decompression" version="0"/>
				<attribute name="fused_names" version="0" value="conv5_4/sep/bn/mean/Fused_Mul__copy"/>
			</rt_info>
			<input>
				<port id="0" precision="FP16">
					<dim>224</dim>
					<dim>248</dim>
					<dim>1</dim>
					<dim>1</dim>
				</port>
			</input>
			<output>
				<port id="1" precision="FP32">
					<dim>224</dim>
					<dim>248</dim>
					<dim>1</dim>
					<dim>1</dim>
				</port>
			</output>
		</layer>
		<layer id="149" name="conv5_4/sep" type="Convolution" version="opset1">
			<data strides="1, 1" dilations="1, 1" pads_begin="0, 0" pads_end="0, 0" auto_pad="explicit"/>
			<rt_info>
				<attribute name="fused_names" version="0" value="conv5_4/sep"/>
			</rt_info>
			<input>
				<port id="0" precision="FP32">
					<dim>1</dim>
					<dim>248</dim>
					<dim>24</dim>
					<dim>42</dim>
				</port>
				<port id="1" precision="FP32">
					<dim>224</dim>
					<dim>248</dim>
					<dim>1</dim>
					<dim>1</dim>
				</port>
			</input>
			<output>
				<port id="2" precision="FP32">
					<dim>1</dim>
					<dim>224</dim>
					<dim>24</dim>
					<dim>42</dim>
				</port>
			</output>
		</layer>
		<layer id="150" name="data_add_1253712542_compressed" type="Const" version="opset1">
			<data element_type="f16" shape="1, 224, 1, 1" offset="1112616" size="448"/>
			<output>
				<port id="0" precision="FP16">
					<dim>1</dim>
					<dim>224</dim>
					<dim>1</dim>
					<dim>1</dim>
				</port>
			</output>
		</layer>
		<layer id="151" name="data_add_1253712542" type="Convert" version="opset1">
			<data destination_type="f32"/>
			<rt_info>
				<attribute name="decompression" version="0"/>
				<attribute name="fused_names" version="0" value="data_add_1253712542"/>
			</rt_info>
			<input>
				<port id="0" precision="FP16">
					<dim>1</dim>
					<dim>224</dim>
					<dim>1</dim>
					<dim>1</dim>
				</port>
			</input>
			<output>
				<port id="1" precision="FP32">
					<dim>1</dim>
					<dim>224</dim>
					<dim>1</dim>
					<dim>1</dim>
				</port>
			</output>
		</layer>
		<layer id="152" name="conv5_4/sep/bn/variance/Fused_Add_" type="Add" version="opset1">
			<data auto_broadcast="numpy"/>
			<rt_info>
				<attribute name="fused_names" version="0" value="conv5_4/sep/bn/variance/Fused_Add_"/>
			</rt_info>
			<input>
				<port id="0" precision="FP32">
					<dim>1</dim>
					<dim>224</dim>
					<dim>24</dim>
					<dim>42</dim>
				</port>
				<port id="1" precision="FP32">
					<dim>1</dim>
					<dim>224</dim>
					<dim>1</dim>
					<dim>1</dim>
				</port>
			</input>
			<output>
				<port id="2" precision="FP32" names="conv5_4/sep">
					<dim>1</dim>
					<dim>224</dim>
					<dim>24</dim>
					<dim>42</dim>
				</port>
			</output>
		</layer>
		<layer id="153" name="relu5_4/sep" type="ReLU" version="opset1">
			<rt_info>
				<attribute name="fused_names" version="0" value="relu5_4/sep"/>
			</rt_info>
			<input>
				<port id="0" precision="FP32">
					<dim>1</dim>
					<dim>224</dim>
					<dim>24</dim>
					<dim>42</dim>
				</port>
			</input>
			<output>
				<port id="1" precision="FP32" names="conv5_4/sep">
					<dim>1</dim>
					<dim>224</dim>
					<dim>24</dim>
					<dim>42</dim>
				</port>
			</output>
		</layer>
		<layer id="154" name="conv5_5/dw/bn/mean/Fused_Mul__copy_compressed" type="Const" version="opset1">
			<data element_type="f16" shape="224, 1, 1, 3, 3" offset="1113064" size="4032"/>
			<output>
				<port id="0" precision="FP16">
					<dim>224</dim>
					<dim>1</dim>
					<dim>1</dim>
					<dim>3</dim>
					<dim>3</dim>
				</port>
			</output>
		</layer>
		<layer id="155" name="conv5_5/dw/bn/mean/Fused_Mul__copy" type="Convert" version="opset1">
			<data destination_type="f32"/>
			<rt_info>
				<attribute name="decompression" version="0"/>
				<attribute name="fused_names" version="0" value="conv5_5/dw/bn/mean/Fused_Mul__copy"/>
			</rt_info>
			<input>
				<port id="0" precision="FP16">
					<dim>224</dim>
					<dim>1</dim>
					<dim>1</dim>
					<dim>3</dim>
					<dim>3</dim>
				</port>
			</input>
			<output>
				<port id="1" precision="FP32">
					<dim>224</dim>
					<dim>1</dim>
					<dim>1</dim>
					<dim>3</dim>
					<dim>3</dim>
				</port>
			</output>
		</layer>
		<layer id="156" name="conv5_5/dw" type="GroupConvolution" version="opset1">
			<data strides="1, 1" pads_begin="1, 1" pads_end="1, 1" dilations="1, 1" auto_pad="explicit"/>
			<rt_info>
				<attribute name="fused_names" version="0" value="conv5_5/dw"/>
			</rt_info>
			<input>
				<port id="0" precision="FP32">
					<dim>1</dim>
					<dim>224</dim>
					<dim>24</dim>
					<dim>42</dim>
				</port>
				<port id="1" precision="FP32">
					<dim>224</dim>
					<dim>1</dim>
					<dim>1</dim>
					<dim>3</dim>
					<dim>3</dim>
				</port>
			</input>
			<output>
				<port id="2" precision="FP32">
					<dim>1</dim>
					<dim>224</dim>
					<dim>24</dim>
					<dim>42</dim>
				</port>
			</output>
		</layer>
		<layer id="157" name="data_add_1254512550_compressed" type="Const" version="opset1">
			<data element_type="f16" shape="1, 224, 1, 1" offset="1117096" size="448"/>
			<output>
				<port id="0" precision="FP16">
					<dim>1</dim>
					<dim>224</dim>
					<dim>1</dim>
					<dim>1</dim>
				</port>
			</output>
		</layer>
		<layer id="158" name="data_add_1254512550" type="Convert" version="opset1">
			<data destination_type="f32"/>
			<rt_info>
				<attribute name="decompression" version="0"/>
				<attribute name="fused_names" version="0" value="data_add_1254512550"/>
			</rt_info>
			<input>
				<port id="0" precision="FP16">
					<dim>1</dim>
					<dim>224</dim>
					<dim>1</dim>
					<dim>1</dim>
				</port>
			</input>
			<output>
				<port id="1" precision="FP32">
					<dim>1</dim>
					<dim>224</dim>
					<dim>1</dim>
					<dim>1</dim>
				</port>
			</output>
		</layer>
		<layer id="159" name="conv5_5/dw/bn/variance/Fused_Add_" type="Add" version="opset1">
			<data auto_broadcast="numpy"/>
			<rt_info>
				<attribute name="fused_names" version="0" value="conv5_5/dw/bn/variance/Fused_Add_"/>
			</rt_info>
			<input>
				<port id="0" precision="FP32">
					<dim>1</dim>
					<dim>224</dim>
					<dim>24</dim>
					<dim>42</dim>
				</port>
				<port id="1" precision="FP32">
					<dim>1</dim>
					<dim>224</dim>
					<dim>1</dim>
					<dim>1</dim>
				</port>
			</input>
			<output>
				<port id="2" precision="FP32" names="conv5_5/dw">
					<dim>1</dim>
					<dim>224</dim>
					<dim>24</dim>
					<dim>42</dim>
				</port>
			</output>
		</layer>
		<layer id="160" name="relu5_5/dw" type="ReLU" version="opset1">
			<rt_info>
				<attribute name="fused_names" version="0" value="relu5_5/dw"/>
			</rt_info>
			<input>
				<port id="0" precision="FP32">
					<dim>1</dim>
					<dim>224</dim>
					<dim>24</dim>
					<dim>42</dim>
				</port>
			</input>
			<output>
				<port id="1" precision="FP32" names="conv5_5/dw">
					<dim>1</dim>
					<dim>224</dim>
					<dim>24</dim>
					<dim>42</dim>
				</port>
			</output>
		</layer>
		<layer id="161" name="conv5_5/sep/bn/mean/Fused_Mul__copy_compressed" type="Const" version="opset1">
			<data element_type="f16" shape="184, 224, 1, 1" offset="1117544" size="82432"/>
			<output>
				<port id="0" precision="FP16">
					<dim>184</dim>
					<dim>224</dim>
					<dim>1</dim>
					<dim>1</dim>
				</port>
			</output>
		</layer>
		<layer id="162" name="conv5_5/sep/bn/mean/Fused_Mul__copy" type="Convert" version="opset1">
			<data destination_type="f32"/>
			<rt_info>
				<attribute name="decompression" version="0"/>
				<attribute name="fused_names" version="0" value="conv5_5/sep/bn/mean/Fused_Mul__copy"/>
			</rt_info>
			<input>
				<port id="0" precision="FP16">
					<dim>184</dim>
					<dim>224</dim>
					<dim>1</dim>
					<dim>1</dim>
				</port>
			</input>
			<output>
				<port id="1" precision="FP32">
					<dim>184</dim>
					<dim>224</dim>
					<dim>1</dim>
					<dim>1</dim>
				</port>
			</output>
		</layer>
		<layer id="163" name="conv5_5/sep" type="Convolution" version="opset1">
			<data strides="1, 1" dilations="1, 1" pads_begin="0, 0" pads_end="0, 0" auto_pad="explicit"/>
			<rt_info>
				<attribute name="fused_names" version="0" value="conv5_5/sep"/>
			</rt_info>
			<input>
				<port id="0" precision="FP32">
					<dim>1</dim>
					<dim>224</dim>
					<dim>24</dim>
					<dim>42</dim>
				</port>
				<port id="1" precision="FP32">
					<dim>184</dim>
					<dim>224</dim>
					<dim>1</dim>
					<dim>1</dim>
				</port>
			</input>
			<output>
				<port id="2" precision="FP32">
					<dim>1</dim>
					<dim>184</dim>
					<dim>24</dim>
					<dim>42</dim>
				</port>
			</output>
		</layer>
		<layer id="164" name="data_add_1255312558_compressed" type="Const" version="opset1">
			<data element_type="f16" shape="1, 184, 1, 1" offset="1199976" size="368"/>
			<output>
				<port id="0" precision="FP16">
					<dim>1</dim>
					<dim>184</dim>
					<dim>1</dim>
					<dim>1</dim>
				</port>
			</output>
		</layer>
		<layer id="165" name="data_add_1255312558" type="Convert" version="opset1">
			<data destination_type="f32"/>
			<rt_info>
				<attribute name="decompression" version="0"/>
				<attribute name="fused_names" version="0" value="data_add_1255312558"/>
			</rt_info>
			<input>
				<port id="0" precision="FP16">
					<dim>1</dim>
					<dim>184</dim>
					<dim>1</dim>
					<dim>1</dim>
				</port>
			</input>
			<output>
				<port id="1" precision="FP32">
					<dim>1</dim>
					<dim>184</dim>
					<dim>1</dim>
					<dim>1</dim>
				</port>
			</output>
		</layer>
		<layer id="166" name="conv5_5/sep/bn/variance/Fused_Add_" type="Add" version="opset1">
			<data auto_broadcast="numpy"/>
			<rt_info>
				<attribute name="fused_names" version="0" value="conv5_5/sep/bn/variance/Fused_Add_"/>
			</rt_info>
			<input>
				<port id="0" precision="FP32">
					<dim>1</dim>
					<dim>184</dim>
					<dim>24</dim>
					<dim>42</dim>
				</port>
				<port id="1" precision="FP32">
					<dim>1</dim>
					<dim>184</dim>
					<dim>1</dim>
					<dim>1</dim>
				</port>
			</input>
			<output>
				<port id="2" precision="FP32" names="conv5_5/sep">
					<dim>1</dim>
					<dim>184</dim>
					<dim>24</dim>
					<dim>42</dim>
				</port>
			</output>
		</layer>
		<layer id="167" name="relu5_5/sep" type="ReLU" version="opset1">
			<rt_info>
				<attribute name="fused_names" version="0" value="relu5_5/sep"/>
			</rt_info>
			<input>
				<port id="0" precision="FP32">
					<dim>1</dim>
					<dim>184</dim>
					<dim>24</dim>
					<dim>42</dim>
				</port>
			</input>
			<output>
				<port id="1" precision="FP32" names="conv5_5/sep">
					<dim>1</dim>
					<dim>184</dim>
					<dim>24</dim>
					<dim>42</dim>
				</port>
			</output>
		</layer>
		<layer id="168" name="444_compressed" type="Const" version="opset1">
			<data element_type="f16" shape="16, 184, 3, 3" offset="1200344" size="52992"/>
			<output>
				<port id="0" precision="FP16">
					<dim>16</dim>
					<dim>184</dim>
					<dim>3</dim>
					<dim>3</dim>
				</port>
			</output>
		</layer>
		<layer id="169" name="444" type="Convert" version="opset1">
			<data destination_type="f32"/>
			<rt_info>
				<attribute name="decompression" version="0"/>
				<attribute name="fused_names" version="0" value="444"/>
			</rt_info>
			<input>
				<port id="0" precision="FP16">
					<dim>16</dim>
					<dim>184</dim>
					<dim>3</dim>
					<dim>3</dim>
				</port>
			</input>
			<output>
				<port id="1" precision="FP32">
					<dim>16</dim>
					<dim>184</dim>
					<dim>3</dim>
					<dim>3</dim>
				</port>
			</output>
		</layer>
		<layer id="170" name="conv4_3_0_norm_mbox_loc/WithoutBiases" type="Convolution" version="opset1">
			<data strides="1, 1" dilations="1, 1" pads_begin="1, 1" pads_end="1, 1" auto_pad="explicit"/>
			<rt_info>
				<attribute name="fused_names" version="0" value="conv4_3_0_norm_mbox_loc/WithoutBiases"/>
			</rt_info>
			<input>
				<port id="0" precision="FP32">
					<dim>1</dim>
					<dim>184</dim>
					<dim>24</dim>
					<dim>42</dim>
				</port>
				<port id="1" precision="FP32">
					<dim>16</dim>
					<dim>184</dim>
					<dim>3</dim>
					<dim>3</dim>
				</port>
			</input>
			<output>
				<port id="2" precision="FP32">
					<dim>1</dim>
					<dim>16</dim>
					<dim>24</dim>
					<dim>42</dim>
				</port>
			</output>
		</layer>
		<layer id="171" name="conv4_3_0_norm_mbox_loc/Dims7197_compressed" type="Const" version="opset1">
			<data element_type="f16" shape="1, 16, 1, 1" offset="1253336" size="32"/>
			<output>
				<port id="0" precision="FP16">
					<dim>1</dim>
					<dim>16</dim>
					<dim>1</dim>
					<dim>1</dim>
				</port>
			</output>
		</layer>
		<layer id="172" name="conv4_3_0_norm_mbox_loc/Dims7197" type="Convert" version="opset1">
			<data destination_type="f32"/>
			<rt_info>
				<attribute name="decompression" version="0"/>
				<attribute name="fused_names" version="0" value="conv4_3_0_norm_mbox_loc/Dims7197"/>
			</rt_info>
			<input>
				<port id="0" precision="FP16">
					<dim>1</dim>
					<dim>16</dim>
					<dim>1</dim>
					<dim>1</dim>
				</port>
			</input>
			<output>
				<port id="1" precision="FP32">
					<dim>1</dim>
					<dim>16</dim>
					<dim>1</dim>
					<dim>1</dim>
				</port>
			</output>
		</layer>
		<layer id="173" name="conv4_3_0_norm_mbox_loc" type="Add" version="opset1">
			<data auto_broadcast="numpy"/>
			<rt_info>
				<attribute name="fused_names" version="0" value="conv4_3_0_norm_mbox_loc"/>
			</rt_info>
			<input>
				<port id="0" precision="FP32">
					<dim>1</dim>
					<dim>16</dim>
					<dim>24</dim>
					<dim>42</dim>
				</port>
				<port id="1" precision="FP32">
					<dim>1</dim>
					<dim>16</dim>
					<dim>1</dim>
					<dim>1</dim>
				</port>
			</input>
			<output>
				<port id="2" precision="FP32" names="conv4_3_0_norm_mbox_loc">
					<dim>1</dim>
					<dim>16</dim>
					<dim>24</dim>
					<dim>42</dim>
				</port>
			</output>
		</layer>
		<layer id="174" name="640" type="Const" version="opset1">
			<data element_type="i64" shape="4" offset="1253368" size="32"/>
			<rt_info>
				<attribute name="fused_names" version="0" value="640"/>
			</rt_info>
			<output>
				<port id="0" precision="I64">
					<dim>4</dim>
				</port>
			</output>
		</layer>
		<layer id="175" name="conv4_3_0_norm_mbox_loc_perm" type="Transpose" version="opset1">
			<rt_info>
				<attribute name="fused_names" version="0" value="conv4_3_0_norm_mbox_loc_perm"/>
			</rt_info>
			<input>
				<port id="0" precision="FP32">
					<dim>1</dim>
					<dim>16</dim>
					<dim>24</dim>
					<dim>42</dim>
				</port>
				<port id="1" precision="I64">
					<dim>4</dim>
				</port>
			</input>
			<output>
				<port id="2" precision="FP32" names="conv4_3_0_norm_mbox_loc_perm">
					<dim>1</dim>
					<dim>24</dim>
					<dim>42</dim>
					<dim>16</dim>
				</port>
			</output>
		</layer>
		<layer id="176" name="681/shapes_concat" type="Const" version="opset1">
			<data element_type="i64" shape="2" offset="1253400" size="16"/>
			<rt_info>
				<attribute name="fused_names" version="0" value="681/shapes_concat"/>
			</rt_info>
			<output>
				<port id="0" precision="I64">
					<dim>2</dim>
				</port>
			</output>
		</layer>
		<layer id="177" name="conv4_3_0_norm_mbox_loc_flat" type="Reshape" version="opset1">
			<data special_zero="true"/>
			<rt_info>
				<attribute name="fused_names" version="0" value="conv4_3_0_norm_mbox_loc_flat"/>
			</rt_info>
			<input>
				<port id="0" precision="FP32">
					<dim>1</dim>
					<dim>24</dim>
					<dim>42</dim>
					<dim>16</dim>
				</port>
				<port id="1" precision="I64">
					<dim>2</dim>
				</port>
			</input>
			<output>
				<port id="2" precision="FP32" names="conv4_3_0_norm_mbox_loc_flat">
					<dim>1</dim>
					<dim>16128</dim>
				</port>
			</output>
		</layer>
		<layer id="178" name="518_compressed" type="Const" version="opset1">
			<data element_type="f16" shape="16, 184, 3, 3" offset="1253416" size="52992"/>
			<output>
				<port id="0" precision="FP16">
					<dim>16</dim>
					<dim>184</dim>
					<dim>3</dim>
					<dim>3</dim>
				</port>
			</output>
		</layer>
		<layer id="179" name="518" type="Convert" version="opset1">
			<data destination_type="f32"/>
			<rt_info>
				<attribute name="decompression" version="0"/>
				<attribute name="fused_names" version="0" value="518"/>
			</rt_info>
			<input>
				<port id="0" precision="FP16">
					<dim>16</dim>
					<dim>184</dim>
					<dim>3</dim>
					<dim>3</dim>
				</port>
			</input>
			<output>
				<port id="1" precision="FP32">
					<dim>16</dim>
					<dim>184</dim>
					<dim>3</dim>
					<dim>3</dim>
				</port>
			</output>
		</layer>
		<layer id="180" name="conv4_3_norm_mbox_loc/WithoutBiases" type="Convolution" version="opset1">
			<data strides="1, 1" dilations="1, 1" pads_begin="1, 1" pads_end="1, 1" auto_pad="explicit"/>
			<rt_info>
				<attribute name="fused_names" version="0" value="conv4_3_norm_mbox_loc/WithoutBiases"/>
			</rt_info>
			<input>
				<port id="0" precision="FP32">
					<dim>1</dim>
					<dim>184</dim>
					<dim>24</dim>
					<dim>42</dim>
				</port>
				<port id="1" precision="FP32">
					<dim>16</dim>
					<dim>184</dim>
					<dim>3</dim>
					<dim>3</dim>
				</port>
			</input>
			<output>
				<port id="2" precision="FP32">
					<dim>1</dim>
					<dim>16</dim>
					<dim>24</dim>
					<dim>42</dim>
				</port>
			</output>
		</layer>
		<layer id="181" name="conv4_3_norm_mbox_loc/Dims7071_compressed" type="Const" version="opset1">
			<data element_type="f16" shape="1, 16, 1, 1" offset="1306408" size="32"/>
			<output>
				<port id="0" precision="FP16">
					<dim>1</dim>
					<dim>16</dim>
					<dim>1</dim>
					<dim>1</dim>
				</port>
			</output>
		</layer>
		<layer id="182" name="conv4_3_norm_mbox_loc/Dims7071" type="Convert" version="opset1">
			<data destination_type="f32"/>
			<rt_info>
				<attribute name="decompression" version="0"/>
				<attribute name="fused_names" version="0" value="conv4_3_norm_mbox_loc/Dims7071"/>
			</rt_info>
			<input>
				<port id="0" precision="FP16">
					<dim>1</dim>
					<dim>16</dim>
					<dim>1</dim>
					<dim>1</dim>
				</port>
			</input>
			<output>
				<port id="1" precision="FP32">
					<dim>1</dim>
					<dim>16</dim>
					<dim>1</dim>
					<dim>1</dim>
				</port>
			</output>
		</layer>
		<layer id="183" name="conv4_3_norm_mbox_loc" type="Add" version="opset1">
			<data auto_broadcast="numpy"/>
			<rt_info>
				<attribute name="fused_names" version="0" value="conv4_3_norm_mbox_loc"/>
			</rt_info>
			<input>
				<port id="0" precision="FP32">
					<dim>1</dim>
					<dim>16</dim>
					<dim>24</dim>
					<dim>42</dim>
				</port>
				<port id="1" precision="FP32">
					<dim>1</dim>
					<dim>16</dim>
					<dim>1</dim>
					<dim>1</dim>
				</port>
			</input>
			<output>
				<port id="2" precision="FP32" names="conv4_3_norm_mbox_loc">
					<dim>1</dim>
					<dim>16</dim>
					<dim>24</dim>
					<dim>42</dim>
				</port>
			</output>
		</layer>
		<layer id="184" name="637" type="Const" version="opset1">
			<data element_type="i64" shape="4" offset="1253368" size="32"/>
			<rt_info>
				<attribute name="fused_names" version="0" value="637"/>
			</rt_info>
			<output>
				<port id="0" precision="I64">
					<dim>4</dim>
				</port>
			</output>
		</layer>
		<layer id="185" name="conv4_3_norm_mbox_loc_perm" type="Transpose" version="opset1">
			<rt_info>
				<attribute name="fused_names" version="0" value="conv4_3_norm_mbox_loc_perm"/>
			</rt_info>
			<input>
				<port id="0" precision="FP32">
					<dim>1</dim>
					<dim>16</dim>
					<dim>24</dim>
					<dim>42</dim>
				</port>
				<port id="1" precision="I64">
					<dim>4</dim>
				</port>
			</input>
			<output>
				<port id="2" precision="FP32" names="conv4_3_norm_mbox_loc_perm">
					<dim>1</dim>
					<dim>24</dim>
					<dim>42</dim>
					<dim>16</dim>
				</port>
			</output>
		</layer>
		<layer id="186" name="701/shapes_concat" type="Const" version="opset1">
			<data element_type="i64" shape="2" offset="1253400" size="16"/>
			<rt_info>
				<attribute name="fused_names" version="0" value="701/shapes_concat"/>
			</rt_info>
			<output>
				<port id="0" precision="I64">
					<dim>2</dim>
				</port>
			</output>
		</layer>
		<layer id="187" name="conv4_3_norm_mbox_loc_flat" type="Reshape" version="opset1">
			<data special_zero="true"/>
			<rt_info>
				<attribute name="fused_names" version="0" value="conv4_3_norm_mbox_loc_flat"/>
			</rt_info>
			<input>
				<port id="0" precision="FP32">
					<dim>1</dim>
					<dim>24</dim>
					<dim>42</dim>
					<dim>16</dim>
				</port>
				<port id="1" precision="I64">
					<dim>2</dim>
				</port>
			</input>
			<output>
				<port id="2" precision="FP32" names="conv4_3_norm_mbox_loc_flat">
					<dim>1</dim>
					<dim>16128</dim>
				</port>
			</output>
		</layer>
		<layer id="188" name="conv5_6/dw/bn/mean/Fused_Mul__copy_compressed" type="Const" version="opset1">
			<data element_type="f16" shape="184, 1, 1, 3, 3" offset="1306440" size="3312"/>
			<output>
				<port id="0" precision="FP16">
					<dim>184</dim>
					<dim>1</dim>
					<dim>1</dim>
					<dim>3</dim>
					<dim>3</dim>
				</port>
			</output>
		</layer>
		<layer id="189" name="conv5_6/dw/bn/mean/Fused_Mul__copy" type="Convert" version="opset1">
			<data destination_type="f32"/>
			<rt_info>
				<attribute name="decompression" version="0"/>
				<attribute name="fused_names" version="0" value="conv5_6/dw/bn/mean/Fused_Mul__copy"/>
			</rt_info>
			<input>
				<port id="0" precision="FP16">
					<dim>184</dim>
					<dim>1</dim>
					<dim>1</dim>
					<dim>3</dim>
					<dim>3</dim>
				</port>
			</input>
			<output>
				<port id="1" precision="FP32">
					<dim>184</dim>
					<dim>1</dim>
					<dim>1</dim>
					<dim>3</dim>
					<dim>3</dim>
				</port>
			</output>
		</layer>
		<layer id="190" name="conv5_6/dw" type="GroupConvolution" version="opset1">
			<data strides="2, 2" pads_begin="1, 1" pads_end="1, 1" dilations="1, 1" auto_pad="explicit"/>
			<rt_info>
				<attribute name="fused_names" version="0" value="conv5_6/dw"/>
			</rt_info>
			<input>
				<port id="0" precision="FP32">
					<dim>1</dim>
					<dim>184</dim>
					<dim>24</dim>
					<dim>42</dim>
				</port>
				<port id="1" precision="FP32">
					<dim>184</dim>
					<dim>1</dim>
					<dim>1</dim>
					<dim>3</dim>
					<dim>3</dim>
				</port>
			</input>
			<output>
				<port id="2" precision="FP32">
					<dim>1</dim>
					<dim>184</dim>
					<dim>12</dim>
					<dim>21</dim>
				</port>
			</output>
		</layer>
		<layer id="191" name="data_add_1257712582_compressed" type="Const" version="opset1">
			<data element_type="f16" shape="1, 184, 1, 1" offset="1309752" size="368"/>
			<output>
				<port id="0" precision="FP16">
					<dim>1</dim>
					<dim>184</dim>
					<dim>1</dim>
					<dim>1</dim>
				</port>
			</output>
		</layer>
		<layer id="192" name="data_add_1257712582" type="Convert" version="opset1">
			<data destination_type="f32"/>
			<rt_info>
				<attribute name="decompression" version="0"/>
				<attribute name="fused_names" version="0" value="data_add_1257712582"/>
			</rt_info>
			<input>
				<port id="0" precision="FP16">
					<dim>1</dim>
					<dim>184</dim>
					<dim>1</dim>
					<dim>1</dim>
				</port>
			</input>
			<output>
				<port id="1" precision="FP32">
					<dim>1</dim>
					<dim>184</dim>
					<dim>1</dim>
					<dim>1</dim>
				</port>
			</output>
		</layer>
		<layer id="193" name="conv5_6/dw/bn/variance/Fused_Add_" type="Add" version="opset1">
			<data auto_broadcast="numpy"/>
			<rt_info>
				<attribute name="fused_names" version="0" value="conv5_6/dw/bn/variance/Fused_Add_"/>
			</rt_info>
			<input>
				<port id="0" precision="FP32">
					<dim>1</dim>
					<dim>184</dim>
					<dim>12</dim>
					<dim>21</dim>
				</port>
				<port id="1" precision="FP32">
					<dim>1</dim>
					<dim>184</dim>
					<dim>1</dim>
					<dim>1</dim>
				</port>
			</input>
			<output>
				<port id="2" precision="FP32" names="conv5_6/dw">
					<dim>1</dim>
					<dim>184</dim>
					<dim>12</dim>
					<dim>21</dim>
				</port>
			</output>
		</layer>
		<layer id="194" name="relu5_6/dw" type="ReLU" version="opset1">
			<rt_info>
				<attribute name="fused_names" version="0" value="relu5_6/dw"/>
			</rt_info>
			<input>
				<port id="0" precision="FP32">
					<dim>1</dim>
					<dim>184</dim>
					<dim>12</dim>
					<dim>21</dim>
				</port>
			</input>
			<output>
				<port id="1" precision="FP32" names="conv5_6/dw">
					<dim>1</dim>
					<dim>184</dim>
					<dim>12</dim>
					<dim>21</dim>
				</port>
			</output>
		</layer>
		<layer id="195" name="conv5_6/sep/bn/mean/Fused_Mul__copy_compressed" type="Const" version="opset1">
			<data element_type="f16" shape="224, 184, 1, 1" offset="1310120" size="82432"/>
			<output>
				<port id="0" precision="FP16">
					<dim>224</dim>
					<dim>184</dim>
					<dim>1</dim>
					<dim>1</dim>
				</port>
			</output>
		</layer>
		<layer id="196" name="conv5_6/sep/bn/mean/Fused_Mul__copy" type="Convert" version="opset1">
			<data destination_type="f32"/>
			<rt_info>
				<attribute name="decompression" version="0"/>
				<attribute name="fused_names" version="0" value="conv5_6/sep/bn/mean/Fused_Mul__copy"/>
			</rt_info>
			<input>
				<port id="0" precision="FP16">
					<dim>224</dim>
					<dim>184</dim>
					<dim>1</dim>
					<dim>1</dim>
				</port>
			</input>
			<output>
				<port id="1" precision="FP32">
					<dim>224</dim>
					<dim>184</dim>
					<dim>1</dim>
					<dim>1</dim>
				</port>
			</output>
		</layer>
		<layer id="197" name="conv5_6/sep/WithoutBiases" type="Convolution" version="opset1">
			<data strides="1, 1" dilations="1, 1" pads_begin="0, 0" pads_end="0, 0" auto_pad="explicit"/>
			<rt_info>
				<attribute name="fused_names" version="0" value="conv5_6/sep/WithoutBiases"/>
			</rt_info>
			<input>
				<port id="0" precision="FP32">
					<dim>1</dim>
					<dim>184</dim>
					<dim>12</dim>
					<dim>21</dim>
				</port>
				<port id="1" precision="FP32">
					<dim>224</dim>
					<dim>184</dim>
					<dim>1</dim>
					<dim>1</dim>
				</port>
			</input>
			<output>
				<port id="2" precision="FP32">
					<dim>1</dim>
					<dim>224</dim>
					<dim>12</dim>
					<dim>21</dim>
				</port>
			</output>
		</layer>
		<layer id="198" name="data_add_1258512590_compressed" type="Const" version="opset1">
			<data element_type="f16" shape="1, 224, 1, 1" offset="1392552" size="448"/>
			<output>
				<port id="0" precision="FP16">
					<dim>1</dim>
					<dim>224</dim>
					<dim>1</dim>
					<dim>1</dim>
				</port>
			</output>
		</layer>
		<layer id="199" name="data_add_1258512590" type="Convert" version="opset1">
			<data destination_type="f32"/>
			<rt_info>
				<attribute name="decompression" version="0"/>
				<attribute name="fused_names" version="0" value="data_add_1258512590"/>
			</rt_info>
			<input>
				<port id="0" precision="FP16">
					<dim>1</dim>
					<dim>224</dim>
					<dim>1</dim>
					<dim>1</dim>
				</port>
			</input>
			<output>
				<port id="1" precision="FP32">
					<dim>1</dim>
					<dim>224</dim>
					<dim>1</dim>
					<dim>1</dim>
				</port>
			</output>
		</layer>
		<layer id="200" name="conv5_6/sep/Fused_Add_" type="Add" version="opset1">
			<data auto_broadcast="numpy"/>
			<rt_info>
				<attribute name="fused_names" version="0" value="conv5_6/sep/Fused_Add_"/>
			</rt_info>
			<input>
				<port id="0" precision="FP32">
					<dim>1</dim>
					<dim>224</dim>
					<dim>12</dim>
					<dim>21</dim>
				</port>
				<port id="1" precision="FP32">
					<dim>1</dim>
					<dim>224</dim>
					<dim>1</dim>
					<dim>1</dim>
				</port>
			</input>
			<output>
				<port id="2" precision="FP32" names="conv5_6/sep">
					<dim>1</dim>
					<dim>224</dim>
					<dim>12</dim>
					<dim>21</dim>
				</port>
			</output>
		</layer>
		<layer id="201" name="relu5_6/sep" type="ReLU" version="opset1">
			<rt_info>
				<attribute name="fused_names" version="0" value="relu5_6/sep"/>
			</rt_info>
			<input>
				<port id="0" precision="FP32">
					<dim>1</dim>
					<dim>224</dim>
					<dim>12</dim>
					<dim>21</dim>
				</port>
			</input>
			<output>
				<port id="1" precision="FP32" names="conv5_6/sep">
					<dim>1</dim>
					<dim>224</dim>
					<dim>12</dim>
					<dim>21</dim>
				</port>
			</output>
		</layer>
		<layer id="202" name="conv6/dw/bn/mean/Fused_Mul__copy_compressed" type="Const" version="opset1">
			<data element_type="f16" shape="224, 1, 1, 3, 3" offset="1393000" size="4032"/>
			<output>
				<port id="0" precision="FP16">
					<dim>224</dim>
					<dim>1</dim>
					<dim>1</dim>
					<dim>3</dim>
					<dim>3</dim>
				</port>
			</output>
		</layer>
		<layer id="203" name="conv6/dw/bn/mean/Fused_Mul__copy" type="Convert" version="opset1">
			<data destination_type="f32"/>
			<rt_info>
				<attribute name="decompression" version="0"/>
				<attribute name="fused_names" version="0" value="conv6/dw/bn/mean/Fused_Mul__copy"/>
			</rt_info>
			<input>
				<port id="0" precision="FP16">
					<dim>224</dim>
					<dim>1</dim>
					<dim>1</dim>
					<dim>3</dim>
					<dim>3</dim>
				</port>
			</input>
			<output>
				<port id="1" precision="FP32">
					<dim>224</dim>
					<dim>1</dim>
					<dim>1</dim>
					<dim>3</dim>
					<dim>3</dim>
				</port>
			</output>
		</layer>
		<layer id="204" name="conv6/dw" type="GroupConvolution" version="opset1">
			<data strides="1, 1" pads_begin="1, 1" pads_end="1, 1" dilations="1, 1" auto_pad="explicit"/>
			<rt_info>
				<attribute name="fused_names" version="0" value="conv6/dw"/>
			</rt_info>
			<input>
				<port id="0" precision="FP32">
					<dim>1</dim>
					<dim>224</dim>
					<dim>12</dim>
					<dim>21</dim>
				</port>
				<port id="1" precision="FP32">
					<dim>224</dim>
					<dim>1</dim>
					<dim>1</dim>
					<dim>3</dim>
					<dim>3</dim>
				</port>
			</input>
			<output>
				<port id="2" precision="FP32">
					<dim>1</dim>
					<dim>224</dim>
					<dim>12</dim>
					<dim>21</dim>
				</port>
			</output>
		</layer>
		<layer id="205" name="data_add_1259312598_compressed" type="Const" version="opset1">
			<data element_type="f16" shape="1, 224, 1, 1" offset="1397032" size="448"/>
			<output>
				<port id="0" precision="FP16">
					<dim>1</dim>
					<dim>224</dim>
					<dim>1</dim>
					<dim>1</dim>
				</port>
			</output>
		</layer>
		<layer id="206" name="data_add_1259312598" type="Convert" version="opset1">
			<data destination_type="f32"/>
			<rt_info>
				<attribute name="decompression" version="0"/>
				<attribute name="fused_names" version="0" value="data_add_1259312598"/>
			</rt_info>
			<input>
				<port id="0" precision="FP16">
					<dim>1</dim>
					<dim>224</dim>
					<dim>1</dim>
					<dim>1</dim>
				</port>
			</input>
			<output>
				<port id="1" precision="FP32">
					<dim>1</dim>
					<dim>224</dim>
					<dim>1</dim>
					<dim>1</dim>
				</port>
			</output>
		</layer>
		<layer id="207" name="conv6/dw/bn/variance/Fused_Add_" type="Add" version="opset1">
			<data auto_broadcast="numpy"/>
			<rt_info>
				<attribute name="fused_names" version="0" value="conv6/dw/bn/variance/Fused_Add_"/>
			</rt_info>
			<input>
				<port id="0" precision="FP32">
					<dim>1</dim>
					<dim>224</dim>
					<dim>12</dim>
					<dim>21</dim>
				</port>
				<port id="1" precision="FP32">
					<dim>1</dim>
					<dim>224</dim>
					<dim>1</dim>
					<dim>1</dim>
				</port>
			</input>
			<output>
				<port id="2" precision="FP32" names="conv6/dw">
					<dim>1</dim>
					<dim>224</dim>
					<dim>12</dim>
					<dim>21</dim>
				</port>
			</output>
		</layer>
		<layer id="208" name="relu6/dw" type="ReLU" version="opset1">
			<rt_info>
				<attribute name="fused_names" version="0" value="relu6/dw"/>
			</rt_info>
			<input>
				<port id="0" precision="FP32">
					<dim>1</dim>
					<dim>224</dim>
					<dim>12</dim>
					<dim>21</dim>
				</port>
			</input>
			<output>
				<port id="1" precision="FP32" names="conv6/dw">
					<dim>1</dim>
					<dim>224</dim>
					<dim>12</dim>
					<dim>21</dim>
				</port>
			</output>
		</layer>
		<layer id="209" name="conv6/sep/bn/mean/Fused_Mul__copy_compressed" type="Const" version="opset1">
			<data element_type="f16" shape="128, 224, 1, 1" offset="1397480" size="57344"/>
			<output>
				<port id="0" precision="FP16">
					<dim>128</dim>
					<dim>224</dim>
					<dim>1</dim>
					<dim>1</dim>
				</port>
			</output>
		</layer>
		<layer id="210" name="conv6/sep/bn/mean/Fused_Mul__copy" type="Convert" version="opset1">
			<data destination_type="f32"/>
			<rt_info>
				<attribute name="decompression" version="0"/>
				<attribute name="fused_names" version="0" value="conv6/sep/bn/mean/Fused_Mul__copy"/>
			</rt_info>
			<input>
				<port id="0" precision="FP16">
					<dim>128</dim>
					<dim>224</dim>
					<dim>1</dim>
					<dim>1</dim>
				</port>
			</input>
			<output>
				<port id="1" precision="FP32">
					<dim>128</dim>
					<dim>224</dim>
					<dim>1</dim>
					<dim>1</dim>
				</port>
			</output>
		</layer>
		<layer id="211" name="conv6/sep" type="Convolution" version="opset1">
			<data strides="1, 1" dilations="1, 1" pads_begin="0, 0" pads_end="0, 0" auto_pad="explicit"/>
			<rt_info>
				<attribute name="fused_names" version="0" value="conv6/sep"/>
			</rt_info>
			<input>
				<port id="0" precision="FP32">
					<dim>1</dim>
					<dim>224</dim>
					<dim>12</dim>
					<dim>21</dim>
				</port>
				<port id="1" precision="FP32">
					<dim>128</dim>
					<dim>224</dim>
					<dim>1</dim>
					<dim>1</dim>
				</port>
			</input>
			<output>
				<port id="2" precision="FP32">
					<dim>1</dim>
					<dim>128</dim>
					<dim>12</dim>
					<dim>21</dim>
				</port>
			</output>
		</layer>
		<layer id="212" name="data_add_1260112606_compressed" type="Const" version="opset1">
			<data element_type="f16" shape="1, 128, 1, 1" offset="1454824" size="256"/>
			<output>
				<port id="0" precision="FP16">
					<dim>1</dim>
					<dim>128</dim>
					<dim>1</dim>
					<dim>1</dim>
				</port>
			</output>
		</layer>
		<layer id="213" name="data_add_1260112606" type="Convert" version="opset1">
			<data destination_type="f32"/>
			<rt_info>
				<attribute name="decompression" version="0"/>
				<attribute name="fused_names" version="0" value="data_add_1260112606"/>
			</rt_info>
			<input>
				<port id="0" precision="FP16">
					<dim>1</dim>
					<dim>128</dim>
					<dim>1</dim>
					<dim>1</dim>
				</port>
			</input>
			<output>
				<port id="1" precision="FP32">
					<dim>1</dim>
					<dim>128</dim>
					<dim>1</dim>
					<dim>1</dim>
				</port>
			</output>
		</layer>
		<layer id="214" name="conv6/sep/bn/variance/Fused_Add_" type="Add" version="opset1">
			<data auto_broadcast="numpy"/>
			<rt_info>
				<attribute name="fused_names" version="0" value="conv6/sep/bn/variance/Fused_Add_"/>
			</rt_info>
			<input>
				<port id="0" precision="FP32">
					<dim>1</dim>
					<dim>128</dim>
					<dim>12</dim>
					<dim>21</dim>
				</port>
				<port id="1" precision="FP32">
					<dim>1</dim>
					<dim>128</dim>
					<dim>1</dim>
					<dim>1</dim>
				</port>
			</input>
			<output>
				<port id="2" precision="FP32" names="conv6/sep">
					<dim>1</dim>
					<dim>128</dim>
					<dim>12</dim>
					<dim>21</dim>
				</port>
			</output>
		</layer>
		<layer id="215" name="relu6/sep" type="ReLU" version="opset1">
			<rt_info>
				<attribute name="fused_names" version="0" value="relu6/sep"/>
			</rt_info>
			<input>
				<port id="0" precision="FP32">
					<dim>1</dim>
					<dim>128</dim>
					<dim>12</dim>
					<dim>21</dim>
				</port>
			</input>
			<output>
				<port id="1" precision="FP32" names="conv6/sep">
					<dim>1</dim>
					<dim>128</dim>
					<dim>12</dim>
					<dim>21</dim>
				</port>
			</output>
		</layer>
		<layer id="216" name="487_compressed" type="Const" version="opset1">
			<data element_type="f16" shape="24, 128, 3, 3" offset="1455080" size="55296"/>
			<output>
				<port id="0" precision="FP16">
					<dim>24</dim>
					<dim>128</dim>
					<dim>3</dim>
					<dim>3</dim>
				</port>
			</output>
		</layer>
		<layer id="217" name="487" type="Convert" version="opset1">
			<data destination_type="f32"/>
			<rt_info>
				<attribute name="decompression" version="0"/>
				<attribute name="fused_names" version="0" value="487"/>
			</rt_info>
			<input>
				<port id="0" precision="FP16">
					<dim>24</dim>
					<dim>128</dim>
					<dim>3</dim>
					<dim>3</dim>
				</port>
			</input>
			<output>
				<port id="1" precision="FP32">
					<dim>24</dim>
					<dim>128</dim>
					<dim>3</dim>
					<dim>3</dim>
				</port>
			</output>
		</layer>
		<layer id="218" name="fc7_mbox_loc/WithoutBiases" type="Convolution" version="opset1">
			<data strides="1, 1" dilations="1, 1" pads_begin="1, 1" pads_end="1, 1" auto_pad="explicit"/>
			<rt_info>
				<attribute name="fused_names" version="0" value="fc7_mbox_loc/WithoutBiases"/>
			</rt_info>
			<input>
				<port id="0" precision="FP32">
					<dim>1</dim>
					<dim>128</dim>
					<dim>12</dim>
					<dim>21</dim>
				</port>
				<port id="1" precision="FP32">
					<dim>24</dim>
					<dim>128</dim>
					<dim>3</dim>
					<dim>3</dim>
				</port>
			</input>
			<output>
				<port id="2" precision="FP32">
					<dim>1</dim>
					<dim>24</dim>
					<dim>12</dim>
					<dim>21</dim>
				</port>
			</output>
		</layer>
		<layer id="219" name="fc7_mbox_loc/Dims7137_compressed" type="Const" version="opset1">
			<data element_type="f16" shape="1, 24, 1, 1" offset="1510376" size="48"/>
			<output>
				<port id="0" precision="FP16">
					<dim>1</dim>
					<dim>24</dim>
					<dim>1</dim>
					<dim>1</dim>
				</port>
			</output>
		</layer>
		<layer id="220" name="fc7_mbox_loc/Dims7137" type="Convert" version="opset1">
			<data destination_type="f32"/>
			<rt_info>
				<attribute name="decompression" version="0"/>
				<attribute name="fused_names" version="0" value="fc7_mbox_loc/Dims7137"/>
			</rt_info>
			<input>
				<port id="0" precision="FP16">
					<dim>1</dim>
					<dim>24</dim>
					<dim>1</dim>
					<dim>1</dim>
				</port>
			</input>
			<output>
				<port id="1" precision="FP32">
					<dim>1</dim>
					<dim>24</dim>
					<dim>1</dim>
					<dim>1</dim>
				</port>
			</output>
		</layer>
		<layer id="221" name="fc7_mbox_loc" type="Add" version="opset1">
			<data auto_broadcast="numpy"/>
			<rt_info>
				<attribute name="fused_names" version="0" value="fc7_mbox_loc"/>
			</rt_info>
			<input>
				<port id="0" precision="FP32">
					<dim>1</dim>
					<dim>24</dim>
					<dim>12</dim>
					<dim>21</dim>
				</port>
				<port id="1" precision="FP32">
					<dim>1</dim>
					<dim>24</dim>
					<dim>1</dim>
					<dim>1</dim>
				</port>
			</input>
			<output>
				<port id="2" precision="FP32" names="fc7_mbox_loc">
					<dim>1</dim>
					<dim>24</dim>
					<dim>12</dim>
					<dim>21</dim>
				</port>
			</output>
		</layer>
		<layer id="222" name="635" type="Const" version="opset1">
			<data element_type="i64" shape="4" offset="1253368" size="32"/>
			<rt_info>
				<attribute name="fused_names" version="0" value="635"/>
			</rt_info>
			<output>
				<port id="0" precision="I64">
					<dim>4</dim>
				</port>
			</output>
		</layer>
		<layer id="223" name="fc7_mbox_loc_perm" type="Transpose" version="opset1">
			<rt_info>
				<attribute name="fused_names" version="0" value="fc7_mbox_loc_perm"/>
			</rt_info>
			<input>
				<port id="0" precision="FP32">
					<dim>1</dim>
					<dim>24</dim>
					<dim>12</dim>
					<dim>21</dim>
				</port>
				<port id="1" precision="I64">
					<dim>4</dim>
				</port>
			</input>
			<output>
				<port id="2" precision="FP32" names="fc7_mbox_loc_perm">
					<dim>1</dim>
					<dim>12</dim>
					<dim>21</dim>
					<dim>24</dim>
				</port>
			</output>
		</layer>
		<layer id="224" name="686/shapes_concat" type="Const" version="opset1">
			<data element_type="i64" shape="2" offset="1253400" size="16"/>
			<rt_info>
				<attribute name="fused_names" version="0" value="686/shapes_concat"/>
			</rt_info>
			<output>
				<port id="0" precision="I64">
					<dim>2</dim>
				</port>
			</output>
		</layer>
		<layer id="225" name="fc7_mbox_loc_flat" type="Reshape" version="opset1">
			<data special_zero="true"/>
			<rt_info>
				<attribute name="fused_names" version="0" value="fc7_mbox_loc_flat"/>
			</rt_info>
			<input>
				<port id="0" precision="FP32">
					<dim>1</dim>
					<dim>12</dim>
					<dim>21</dim>
					<dim>24</dim>
				</port>
				<port id="1" precision="I64">
					<dim>2</dim>
				</port>
			</input>
			<output>
				<port id="2" precision="FP32" names="fc7_mbox_loc_flat">
					<dim>1</dim>
					<dim>6048</dim>
				</port>
			</output>
		</layer>
		<layer id="226" name="conv6_1/bn/mean/Fused_Mul__copy_compressed" type="Const" version="opset1">
			<data element_type="f16" shape="120, 128, 1, 1" offset="1510424" size="30720"/>
			<output>
				<port id="0" precision="FP16">
					<dim>120</dim>
					<dim>128</dim>
					<dim>1</dim>
					<dim>1</dim>
				</port>
			</output>
		</layer>
		<layer id="227" name="conv6_1/bn/mean/Fused_Mul__copy" type="Convert" version="opset1">
			<data destination_type="f32"/>
			<rt_info>
				<attribute name="decompression" version="0"/>
				<attribute name="fused_names" version="0" value="conv6_1/bn/mean/Fused_Mul__copy"/>
			</rt_info>
			<input>
				<port id="0" precision="FP16">
					<dim>120</dim>
					<dim>128</dim>
					<dim>1</dim>
					<dim>1</dim>
				</port>
			</input>
			<output>
				<port id="1" precision="FP32">
					<dim>120</dim>
					<dim>128</dim>
					<dim>1</dim>
					<dim>1</dim>
				</port>
			</output>
		</layer>
		<layer id="228" name="conv6_1" type="Convolution" version="opset1">
			<data strides="1, 1" dilations="1, 1" pads_begin="0, 0" pads_end="0, 0" auto_pad="explicit"/>
			<rt_info>
				<attribute name="fused_names" version="0" value="conv6_1"/>
			</rt_info>
			<input>
				<port id="0" precision="FP32">
					<dim>1</dim>
					<dim>128</dim>
					<dim>12</dim>
					<dim>21</dim>
				</port>
				<port id="1" precision="FP32">
					<dim>120</dim>
					<dim>128</dim>
					<dim>1</dim>
					<dim>1</dim>
				</port>
			</input>
			<output>
				<port id="2" precision="FP32">
					<dim>1</dim>
					<dim>120</dim>
					<dim>12</dim>
					<dim>21</dim>
				</port>
			</output>
		</layer>
		<layer id="229" name="data_add_1261712622_compressed" type="Const" version="opset1">
			<data element_type="f16" shape="1, 120, 1, 1" offset="1541144" size="240"/>
			<output>
				<port id="0" precision="FP16">
					<dim>1</dim>
					<dim>120</dim>
					<dim>1</dim>
					<dim>1</dim>
				</port>
			</output>
		</layer>
		<layer id="230" name="data_add_1261712622" type="Convert" version="opset1">
			<data destination_type="f32"/>
			<rt_info>
				<attribute name="decompression" version="0"/>
				<attribute name="fused_names" version="0" value="data_add_1261712622"/>
			</rt_info>
			<input>
				<port id="0" precision="FP16">
					<dim>1</dim>
					<dim>120</dim>
					<dim>1</dim>
					<dim>1</dim>
				</port>
			</input>
			<output>
				<port id="1" precision="FP32">
					<dim>1</dim>
					<dim>120</dim>
					<dim>1</dim>
					<dim>1</dim>
				</port>
			</output>
		</layer>
		<layer id="231" name="conv6_1/bn/variance/Fused_Add_" type="Add" version="opset1">
			<data auto_broadcast="numpy"/>
			<rt_info>
				<attribute name="fused_names" version="0" value="conv6_1/bn/variance/Fused_Add_"/>
			</rt_info>
			<input>
				<port id="0" precision="FP32">
					<dim>1</dim>
					<dim>120</dim>
					<dim>12</dim>
					<dim>21</dim>
				</port>
				<port id="1" precision="FP32">
					<dim>1</dim>
					<dim>120</dim>
					<dim>1</dim>
					<dim>1</dim>
				</port>
			</input>
			<output>
				<port id="2" precision="FP32" names="conv6_1">
					<dim>1</dim>
					<dim>120</dim>
					<dim>12</dim>
					<dim>21</dim>
				</port>
			</output>
		</layer>
		<layer id="232" name="relu6_1" type="ReLU" version="opset1">
			<rt_info>
				<attribute name="fused_names" version="0" value="relu6_1"/>
			</rt_info>
			<input>
				<port id="0" precision="FP32">
					<dim>1</dim>
					<dim>120</dim>
					<dim>12</dim>
					<dim>21</dim>
				</port>
			</input>
			<output>
				<port id="1" precision="FP32" names="conv6_1">
					<dim>1</dim>
					<dim>120</dim>
					<dim>12</dim>
					<dim>21</dim>
				</port>
			</output>
		</layer>
		<layer id="233" name="conv6_2/dw/bn/mean/Fused_Mul__copy_compressed" type="Const" version="opset1">
			<data element_type="f16" shape="120, 1, 1, 3, 3" offset="1541384" size="2160"/>
			<output>
				<port id="0" precision="FP16">
					<dim>120</dim>
					<dim>1</dim>
					<dim>1</dim>
					<dim>3</dim>
					<dim>3</dim>
				</port>
			</output>
		</layer>
		<layer id="234" name="conv6_2/dw/bn/mean/Fused_Mul__copy" type="Convert" version="opset1">
			<data destination_type="f32"/>
			<rt_info>
				<attribute name="decompression" version="0"/>
				<attribute name="fused_names" version="0" value="conv6_2/dw/bn/mean/Fused_Mul__copy"/>
			</rt_info>
			<input>
				<port id="0" precision="FP16">
					<dim>120</dim>
					<dim>1</dim>
					<dim>1</dim>
					<dim>3</dim>
					<dim>3</dim>
				</port>
			</input>
			<output>
				<port id="1" precision="FP32">
					<dim>120</dim>
					<dim>1</dim>
					<dim>1</dim>
					<dim>3</dim>
					<dim>3</dim>
				</port>
			</output>
		</layer>
		<layer id="235" name="conv6_2/dw" type="GroupConvolution" version="opset1">
			<data strides="2, 2" pads_begin="1, 1" pads_end="1, 1" dilations="1, 1" auto_pad="explicit"/>
			<rt_info>
				<attribute name="fused_names" version="0" value="conv6_2/dw"/>
			</rt_info>
			<input>
				<port id="0" precision="FP32">
					<dim>1</dim>
					<dim>120</dim>
					<dim>12</dim>
					<dim>21</dim>
				</port>
				<port id="1" precision="FP32">
					<dim>120</dim>
					<dim>1</dim>
					<dim>1</dim>
					<dim>3</dim>
					<dim>3</dim>
				</port>
			</input>
			<output>
				<port id="2" precision="FP32">
					<dim>1</dim>
					<dim>120</dim>
					<dim>6</dim>
					<dim>11</dim>
				</port>
			</output>
		</layer>
		<layer id="236" name="data_add_1262512630_compressed" type="Const" version="opset1">
			<data element_type="f16" shape="1, 120, 1, 1" offset="1543544" size="240"/>
			<output>
				<port id="0" precision="FP16">
					<dim>1</dim>
					<dim>120</dim>
					<dim>1</dim>
					<dim>1</dim>
				</port>
			</output>
		</layer>
		<layer id="237" name="data_add_1262512630" type="Convert" version="opset1">
			<data destination_type="f32"/>
			<rt_info>
				<attribute name="decompression" version="0"/>
				<attribute name="fused_names" version="0" value="data_add_1262512630"/>
			</rt_info>
			<input>
				<port id="0" precision="FP16">
					<dim>1</dim>
					<dim>120</dim>
					<dim>1</dim>
					<dim>1</dim>
				</port>
			</input>
			<output>
				<port id="1" precision="FP32">
					<dim>1</dim>
					<dim>120</dim>
					<dim>1</dim>
					<dim>1</dim>
				</port>
			</output>
		</layer>
		<layer id="238" name="conv6_2/dw/bn/variance/Fused_Add_" type="Add" version="opset1">
			<data auto_broadcast="numpy"/>
			<rt_info>
				<attribute name="fused_names" version="0" value="conv6_2/dw/bn/variance/Fused_Add_"/>
			</rt_info>
			<input>
				<port id="0" precision="FP32">
					<dim>1</dim>
					<dim>120</dim>
					<dim>6</dim>
					<dim>11</dim>
				</port>
				<port id="1" precision="FP32">
					<dim>1</dim>
					<dim>120</dim>
					<dim>1</dim>
					<dim>1</dim>
				</port>
			</input>
			<output>
				<port id="2" precision="FP32" names="conv6_2/dw">
					<dim>1</dim>
					<dim>120</dim>
					<dim>6</dim>
					<dim>11</dim>
				</port>
			</output>
		</layer>
		<layer id="239" name="relu6_2/dw" type="ReLU" version="opset1">
			<rt_info>
				<attribute name="fused_names" version="0" value="relu6_2/dw"/>
			</rt_info>
			<input>
				<port id="0" precision="FP32">
					<dim>1</dim>
					<dim>120</dim>
					<dim>6</dim>
					<dim>11</dim>
				</port>
			</input>
			<output>
				<port id="1" precision="FP32" names="conv6_2/dw">
					<dim>1</dim>
					<dim>120</dim>
					<dim>6</dim>
					<dim>11</dim>
				</port>
			</output>
		</layer>
		<layer id="240" name="conv6_2/bn/mean/Fused_Mul__copy_compressed" type="Const" version="opset1">
			<data element_type="f16" shape="152, 120, 1, 1" offset="1543784" size="36480"/>
			<output>
				<port id="0" precision="FP16">
					<dim>152</dim>
					<dim>120</dim>
					<dim>1</dim>
					<dim>1</dim>
				</port>
			</output>
		</layer>
		<layer id="241" name="conv6_2/bn/mean/Fused_Mul__copy" type="Convert" version="opset1">
			<data destination_type="f32"/>
			<rt_info>
				<attribute name="decompression" version="0"/>
				<attribute name="fused_names" version="0" value="conv6_2/bn/mean/Fused_Mul__copy"/>
			</rt_info>
			<input>
				<port id="0" precision="FP16">
					<dim>152</dim>
					<dim>120</dim>
					<dim>1</dim>
					<dim>1</dim>
				</port>
			</input>
			<output>
				<port id="1" precision="FP32">
					<dim>152</dim>
					<dim>120</dim>
					<dim>1</dim>
					<dim>1</dim>
				</port>
			</output>
		</layer>
		<layer id="242" name="conv6_2_new" type="Convolution" version="opset1">
			<data strides="1, 1" dilations="1, 1" pads_begin="0, 0" pads_end="0, 0" auto_pad="explicit"/>
			<rt_info>
				<attribute name="fused_names" version="0" value="conv6_2_new"/>
			</rt_info>
			<input>
				<port id="0" precision="FP32">
					<dim>1</dim>
					<dim>120</dim>
					<dim>6</dim>
					<dim>11</dim>
				</port>
				<port id="1" precision="FP32">
					<dim>152</dim>
					<dim>120</dim>
					<dim>1</dim>
					<dim>1</dim>
				</port>
			</input>
			<output>
				<port id="2" precision="FP32">
					<dim>1</dim>
					<dim>152</dim>
					<dim>6</dim>
					<dim>11</dim>
				</port>
			</output>
		</layer>
		<layer id="243" name="data_add_1263312638_compressed" type="Const" version="opset1">
			<data element_type="f16" shape="1, 152, 1, 1" offset="1580264" size="304"/>
			<output>
				<port id="0" precision="FP16">
					<dim>1</dim>
					<dim>152</dim>
					<dim>1</dim>
					<dim>1</dim>
				</port>
			</output>
		</layer>
		<layer id="244" name="data_add_1263312638" type="Convert" version="opset1">
			<data destination_type="f32"/>
			<rt_info>
				<attribute name="decompression" version="0"/>
				<attribute name="fused_names" version="0" value="data_add_1263312638"/>
			</rt_info>
			<input>
				<port id="0" precision="FP16">
					<dim>1</dim>
					<dim>152</dim>
					<dim>1</dim>
					<dim>1</dim>
				</port>
			</input>
			<output>
				<port id="1" precision="FP32">
					<dim>1</dim>
					<dim>152</dim>
					<dim>1</dim>
					<dim>1</dim>
				</port>
			</output>
		</layer>
		<layer id="245" name="conv6_2/bn/variance/Fused_Add_" type="Add" version="opset1">
			<data auto_broadcast="numpy"/>
			<rt_info>
				<attribute name="fused_names" version="0" value="conv6_2/bn/variance/Fused_Add_"/>
			</rt_info>
			<input>
				<port id="0" precision="FP32">
					<dim>1</dim>
					<dim>152</dim>
					<dim>6</dim>
					<dim>11</dim>
				</port>
				<port id="1" precision="FP32">
					<dim>1</dim>
					<dim>152</dim>
					<dim>1</dim>
					<dim>1</dim>
				</port>
			</input>
			<output>
				<port id="2" precision="FP32" names="conv6_2">
					<dim>1</dim>
					<dim>152</dim>
					<dim>6</dim>
					<dim>11</dim>
				</port>
			</output>
		</layer>
		<layer id="246" name="relu6_2" type="ReLU" version="opset1">
			<rt_info>
				<attribute name="fused_names" version="0" value="relu6_2"/>
			</rt_info>
			<input>
				<port id="0" precision="FP32">
					<dim>1</dim>
					<dim>152</dim>
					<dim>6</dim>
					<dim>11</dim>
				</port>
			</input>
			<output>
				<port id="1" precision="FP32" names="conv6_2">
					<dim>1</dim>
					<dim>152</dim>
					<dim>6</dim>
					<dim>11</dim>
				</port>
			</output>
		</layer>
		<layer id="247" name="365_compressed" type="Const" version="opset1">
			<data element_type="f16" shape="24, 152, 3, 3" offset="1580568" size="65664"/>
			<output>
				<port id="0" precision="FP16">
					<dim>24</dim>
					<dim>152</dim>
					<dim>3</dim>
					<dim>3</dim>
				</port>
			</output>
		</layer>
		<layer id="248" name="365" type="Convert" version="opset1">
			<data destination_type="f32"/>
			<rt_info>
				<attribute name="decompression" version="0"/>
				<attribute name="fused_names" version="0" value="365"/>
			</rt_info>
			<input>
				<port id="0" precision="FP16">
					<dim>24</dim>
					<dim>152</dim>
					<dim>3</dim>
					<dim>3</dim>
				</port>
			</input>
			<output>
				<port id="1" precision="FP32">
					<dim>24</dim>
					<dim>152</dim>
					<dim>3</dim>
					<dim>3</dim>
				</port>
			</output>
		</layer>
		<layer id="249" name="conv6_2_mbox_loc/WithoutBiases" type="Convolution" version="opset1">
			<data strides="1, 1" dilations="1, 1" pads_begin="1, 1" pads_end="1, 1" auto_pad="explicit"/>
			<rt_info>
				<attribute name="fused_names" version="0" value="conv6_2_mbox_loc/WithoutBiases"/>
			</rt_info>
			<input>
				<port id="0" precision="FP32">
					<dim>1</dim>
					<dim>152</dim>
					<dim>6</dim>
					<dim>11</dim>
				</port>
				<port id="1" precision="FP32">
					<dim>24</dim>
					<dim>152</dim>
					<dim>3</dim>
					<dim>3</dim>
				</port>
			</input>
			<output>
				<port id="2" precision="FP32">
					<dim>1</dim>
					<dim>24</dim>
					<dim>6</dim>
					<dim>11</dim>
				</port>
			</output>
		</layer>
		<layer id="250" name="conv6_2_mbox_loc/Dims7107_compressed" type="Const" version="opset1">
			<data element_type="f16" shape="1, 24, 1, 1" offset="1646232" size="48"/>
			<output>
				<port id="0" precision="FP16">
					<dim>1</dim>
					<dim>24</dim>
					<dim>1</dim>
					<dim>1</dim>
				</port>
			</output>
		</layer>
		<layer id="251" name="conv6_2_mbox_loc/Dims7107" type="Convert" version="opset1">
			<data destination_type="f32"/>
			<rt_info>
				<attribute name="decompression" version="0"/>
				<attribute name="fused_names" version="0" value="conv6_2_mbox_loc/Dims7107"/>
			</rt_info>
			<input>
				<port id="0" precision="FP16">
					<dim>1</dim>
					<dim>24</dim>
					<dim>1</dim>
					<dim>1</dim>
				</port>
			</input>
			<output>
				<port id="1" precision="FP32">
					<dim>1</dim>
					<dim>24</dim>
					<dim>1</dim>
					<dim>1</dim>
				</port>
			</output>
		</layer>
		<layer id="252" name="conv6_2_mbox_loc" type="Add" version="opset1">
			<data auto_broadcast="numpy"/>
			<rt_info>
				<attribute name="fused_names" version="0" value="conv6_2_mbox_loc"/>
			</rt_info>
			<input>
				<port id="0" precision="FP32">
					<dim>1</dim>
					<dim>24</dim>
					<dim>6</dim>
					<dim>11</dim>
				</port>
				<port id="1" precision="FP32">
					<dim>1</dim>
					<dim>24</dim>
					<dim>1</dim>
					<dim>1</dim>
				</port>
			</input>
			<output>
				<port id="2" precision="FP32" names="conv6_2_mbox_loc">
					<dim>1</dim>
					<dim>24</dim>
					<dim>6</dim>
					<dim>11</dim>
				</port>
			</output>
		</layer>
		<layer id="253" name="627" type="Const" version="opset1">
			<data element_type="i64" shape="4" offset="1253368" size="32"/>
			<rt_info>
				<attribute name="fused_names" version="0" value="627"/>
			</rt_info>
			<output>
				<port id="0" precision="I64">
					<dim>4</dim>
				</port>
			</output>
		</layer>
		<layer id="254" name="conv6_2_mbox_loc_perm" type="Transpose" version="opset1">
			<rt_info>
				<attribute name="fused_names" version="0" value="conv6_2_mbox_loc_perm"/>
			</rt_info>
			<input>
				<port id="0" precision="FP32">
					<dim>1</dim>
					<dim>24</dim>
					<dim>6</dim>
					<dim>11</dim>
				</port>
				<port id="1" precision="I64">
					<dim>4</dim>
				</port>
			</input>
			<output>
				<port id="2" precision="FP32" names="conv6_2_mbox_loc_perm">
					<dim>1</dim>
					<dim>6</dim>
					<dim>11</dim>
					<dim>24</dim>
				</port>
			</output>
		</layer>
		<layer id="255" name="671/shapes_concat" type="Const" version="opset1">
			<data element_type="i64" shape="2" offset="1253400" size="16"/>
			<rt_info>
				<attribute name="fused_names" version="0" value="671/shapes_concat"/>
			</rt_info>
			<output>
				<port id="0" precision="I64">
					<dim>2</dim>
				</port>
			</output>
		</layer>
		<layer id="256" name="conv6_2_mbox_loc_flat" type="Reshape" version="opset1">
			<data special_zero="true"/>
			<rt_info>
				<attribute name="fused_names" version="0" value="conv6_2_mbox_loc_flat"/>
			</rt_info>
			<input>
				<port id="0" precision="FP32">
					<dim>1</dim>
					<dim>6</dim>
					<dim>11</dim>
					<dim>24</dim>
				</port>
				<port id="1" precision="I64">
					<dim>2</dim>
				</port>
			</input>
			<output>
				<port id="2" precision="FP32" names="conv6_2_mbox_loc_flat">
					<dim>1</dim>
					<dim>1584</dim>
				</port>
			</output>
		</layer>
		<layer id="257" name="conv7_1/bn/mean/Fused_Mul__copy_compressed" type="Const" version="opset1">
			<data element_type="f16" shape="112, 152, 1, 1" offset="1646280" size="34048"/>
			<output>
				<port id="0" precision="FP16">
					<dim>112</dim>
					<dim>152</dim>
					<dim>1</dim>
					<dim>1</dim>
				</port>
			</output>
		</layer>
		<layer id="258" name="conv7_1/bn/mean/Fused_Mul__copy" type="Convert" version="opset1">
			<data destination_type="f32"/>
			<rt_info>
				<attribute name="decompression" version="0"/>
				<attribute name="fused_names" version="0" value="conv7_1/bn/mean/Fused_Mul__copy"/>
			</rt_info>
			<input>
				<port id="0" precision="FP16">
					<dim>112</dim>
					<dim>152</dim>
					<dim>1</dim>
					<dim>1</dim>
				</port>
			</input>
			<output>
				<port id="1" precision="FP32">
					<dim>112</dim>
					<dim>152</dim>
					<dim>1</dim>
					<dim>1</dim>
				</port>
			</output>
		</layer>
		<layer id="259" name="conv7_1" type="Convolution" version="opset1">
			<data strides="1, 1" dilations="1, 1" pads_begin="0, 0" pads_end="0, 0" auto_pad="explicit"/>
			<rt_info>
				<attribute name="fused_names" version="0" value="conv7_1"/>
			</rt_info>
			<input>
				<port id="0" precision="FP32">
					<dim>1</dim>
					<dim>152</dim>
					<dim>6</dim>
					<dim>11</dim>
				</port>
				<port id="1" precision="FP32">
					<dim>112</dim>
					<dim>152</dim>
					<dim>1</dim>
					<dim>1</dim>
				</port>
			</input>
			<output>
				<port id="2" precision="FP32">
					<dim>1</dim>
					<dim>112</dim>
					<dim>6</dim>
					<dim>11</dim>
				</port>
			</output>
		</layer>
		<layer id="260" name="data_add_1264912654_compressed" type="Const" version="opset1">
			<data element_type="f16" shape="1, 112, 1, 1" offset="1680328" size="224"/>
			<output>
				<port id="0" precision="FP16">
					<dim>1</dim>
					<dim>112</dim>
					<dim>1</dim>
					<dim>1</dim>
				</port>
			</output>
		</layer>
		<layer id="261" name="data_add_1264912654" type="Convert" version="opset1">
			<data destination_type="f32"/>
			<rt_info>
				<attribute name="decompression" version="0"/>
				<attribute name="fused_names" version="0" value="data_add_1264912654"/>
			</rt_info>
			<input>
				<port id="0" precision="FP16">
					<dim>1</dim>
					<dim>112</dim>
					<dim>1</dim>
					<dim>1</dim>
				</port>
			</input>
			<output>
				<port id="1" precision="FP32">
					<dim>1</dim>
					<dim>112</dim>
					<dim>1</dim>
					<dim>1</dim>
				</port>
			</output>
		</layer>
		<layer id="262" name="conv7_1/bn/variance/Fused_Add_" type="Add" version="opset1">
			<data auto_broadcast="numpy"/>
			<rt_info>
				<attribute name="fused_names" version="0" value="conv7_1/bn/variance/Fused_Add_"/>
			</rt_info>
			<input>
				<port id="0" precision="FP32">
					<dim>1</dim>
					<dim>112</dim>
					<dim>6</dim>
					<dim>11</dim>
				</port>
				<port id="1" precision="FP32">
					<dim>1</dim>
					<dim>112</dim>
					<dim>1</dim>
					<dim>1</dim>
				</port>
			</input>
			<output>
				<port id="2" precision="FP32" names="conv7_1">
					<dim>1</dim>
					<dim>112</dim>
					<dim>6</dim>
					<dim>11</dim>
				</port>
			</output>
		</layer>
		<layer id="263" name="relu7_1" type="ReLU" version="opset1">
			<rt_info>
				<attribute name="fused_names" version="0" value="relu7_1"/>
			</rt_info>
			<input>
				<port id="0" precision="FP32">
					<dim>1</dim>
					<dim>112</dim>
					<dim>6</dim>
					<dim>11</dim>
				</port>
			</input>
			<output>
				<port id="1" precision="FP32" names="conv7_1">
					<dim>1</dim>
					<dim>112</dim>
					<dim>6</dim>
					<dim>11</dim>
				</port>
			</output>
		</layer>
		<layer id="264" name="conv7_2/dw/bn/mean/Fused_Mul__copy_compressed" type="Const" version="opset1">
			<data element_type="f16" shape="112, 1, 1, 3, 3" offset="1680552" size="2016"/>
			<output>
				<port id="0" precision="FP16">
					<dim>112</dim>
					<dim>1</dim>
					<dim>1</dim>
					<dim>3</dim>
					<dim>3</dim>
				</port>
			</output>
		</layer>
		<layer id="265" name="conv7_2/dw/bn/mean/Fused_Mul__copy" type="Convert" version="opset1">
			<data destination_type="f32"/>
			<rt_info>
				<attribute name="decompression" version="0"/>
				<attribute name="fused_names" version="0" value="conv7_2/dw/bn/mean/Fused_Mul__copy"/>
			</rt_info>
			<input>
				<port id="0" precision="FP16">
					<dim>112</dim>
					<dim>1</dim>
					<dim>1</dim>
					<dim>3</dim>
					<dim>3</dim>
				</port>
			</input>
			<output>
				<port id="1" precision="FP32">
					<dim>112</dim>
					<dim>1</dim>
					<dim>1</dim>
					<dim>3</dim>
					<dim>3</dim>
				</port>
			</output>
		</layer>
		<layer id="266" name="conv7_2/dw" type="GroupConvolution" version="opset1">
			<data strides="2, 2" pads_begin="1, 1" pads_end="1, 1" dilations="1, 1" auto_pad="explicit"/>
			<rt_info>
				<attribute name="fused_names" version="0" value="conv7_2/dw"/>
			</rt_info>
			<input>
				<port id="0" precision="FP32">
					<dim>1</dim>
					<dim>112</dim>
					<dim>6</dim>
					<dim>11</dim>
				</port>
				<port id="1" precision="FP32">
					<dim>112</dim>
					<dim>1</dim>
					<dim>1</dim>
					<dim>3</dim>
					<dim>3</dim>
				</port>
			</input>
			<output>
				<port id="2" precision="FP32">
					<dim>1</dim>
					<dim>112</dim>
					<dim>3</dim>
					<dim>6</dim>
				</port>
			</output>
		</layer>
		<layer id="267" name="data_add_1265712662_compressed" type="Const" version="opset1">
			<data element_type="f16" shape="1, 112, 1, 1" offset="1682568" size="224"/>
			<output>
				<port id="0" precision="FP16">
					<dim>1</dim>
					<dim>112</dim>
					<dim>1</dim>
					<dim>1</dim>
				</port>
			</output>
		</layer>
		<layer id="268" name="data_add_1265712662" type="Convert" version="opset1">
			<data destination_type="f32"/>
			<rt_info>
				<attribute name="decompression" version="0"/>
				<attribute name="fused_names" version="0" value="data_add_1265712662"/>
			</rt_info>
			<input>
				<port id="0" precision="FP16">
					<dim>1</dim>
					<dim>112</dim>
					<dim>1</dim>
					<dim>1</dim>
				</port>
			</input>
			<output>
				<port id="1" precision="FP32">
					<dim>1</dim>
					<dim>112</dim>
					<dim>1</dim>
					<dim>1</dim>
				</port>
			</output>
		</layer>
		<layer id="269" name="conv7_2/dw/bn/variance/Fused_Add_" type="Add" version="opset1">
			<data auto_broadcast="numpy"/>
			<rt_info>
				<attribute name="fused_names" version="0" value="conv7_2/dw/bn/variance/Fused_Add_"/>
			</rt_info>
			<input>
				<port id="0" precision="FP32">
					<dim>1</dim>
					<dim>112</dim>
					<dim>3</dim>
					<dim>6</dim>
				</port>
				<port id="1" precision="FP32">
					<dim>1</dim>
					<dim>112</dim>
					<dim>1</dim>
					<dim>1</dim>
				</port>
			</input>
			<output>
				<port id="2" precision="FP32" names="conv7_2/dw">
					<dim>1</dim>
					<dim>112</dim>
					<dim>3</dim>
					<dim>6</dim>
				</port>
			</output>
		</layer>
		<layer id="270" name="relu7_2/dw" type="ReLU" version="opset1">
			<rt_info>
				<attribute name="fused_names" version="0" value="relu7_2/dw"/>
			</rt_info>
			<input>
				<port id="0" precision="FP32">
					<dim>1</dim>
					<dim>112</dim>
					<dim>3</dim>
					<dim>6</dim>
				</port>
			</input>
			<output>
				<port id="1" precision="FP32" names="conv7_2/dw">
					<dim>1</dim>
					<dim>112</dim>
					<dim>3</dim>
					<dim>6</dim>
				</port>
			</output>
		</layer>
		<layer id="271" name="conv7_2/bn/mean/Fused_Mul__copy_compressed" type="Const" version="opset1">
			<data element_type="f16" shape="168, 112, 1, 1" offset="1682792" size="37632"/>
			<output>
				<port id="0" precision="FP16">
					<dim>168</dim>
					<dim>112</dim>
					<dim>1</dim>
					<dim>1</dim>
				</port>
			</output>
		</layer>
		<layer id="272" name="conv7_2/bn/mean/Fused_Mul__copy" type="Convert" version="opset1">
			<data destination_type="f32"/>
			<rt_info>
				<attribute name="decompression" version="0"/>
				<attribute name="fused_names" version="0" value="conv7_2/bn/mean/Fused_Mul__copy"/>
			</rt_info>
			<input>
				<port id="0" precision="FP16">
					<dim>168</dim>
					<dim>112</dim>
					<dim>1</dim>
					<dim>1</dim>
				</port>
			</input>
			<output>
				<port id="1" precision="FP32">
					<dim>168</dim>
					<dim>112</dim>
					<dim>1</dim>
					<dim>1</dim>
				</port>
			</output>
		</layer>
		<layer id="273" name="conv7_2_new" type="Convolution" version="opset1">
			<data strides="1, 1" dilations="1, 1" pads_begin="0, 0" pads_end="0, 0" auto_pad="explicit"/>
			<rt_info>
				<attribute name="fused_names" version="0" value="conv7_2_new"/>
			</rt_info>
			<input>
				<port id="0" precision="FP32">
					<dim>1</dim>
					<dim>112</dim>
					<dim>3</dim>
					<dim>6</dim>
				</port>
				<port id="1" precision="FP32">
					<dim>168</dim>
					<dim>112</dim>
					<dim>1</dim>
					<dim>1</dim>
				</port>
			</input>
			<output>
				<port id="2" precision="FP32">
					<dim>1</dim>
					<dim>168</dim>
					<dim>3</dim>
					<dim>6</dim>
				</port>
			</output>
		</layer>
		<layer id="274" name="data_add_1266512670_compressed" type="Const" version="opset1">
			<data element_type="f16" shape="1, 168, 1, 1" offset="1720424" size="336"/>
			<output>
				<port id="0" precision="FP16">
					<dim>1</dim>
					<dim>168</dim>
					<dim>1</dim>
					<dim>1</dim>
				</port>
			</output>
		</layer>
		<layer id="275" name="data_add_1266512670" type="Convert" version="opset1">
			<data destination_type="f32"/>
			<rt_info>
				<attribute name="decompression" version="0"/>
				<attribute name="fused_names" version="0" value="data_add_1266512670"/>
			</rt_info>
			<input>
				<port id="0" precision="FP16">
					<dim>1</dim>
					<dim>168</dim>
					<dim>1</dim>
					<dim>1</dim>
				</port>
			</input>
			<output>
				<port id="1" precision="FP32">
					<dim>1</dim>
					<dim>168</dim>
					<dim>1</dim>
					<dim>1</dim>
				</port>
			</output>
		</layer>
		<layer id="276" name="conv7_2/bn/variance/Fused_Add_" type="Add" version="opset1">
			<data auto_broadcast="numpy"/>
			<rt_info>
				<attribute name="fused_names" version="0" value="conv7_2/bn/variance/Fused_Add_"/>
			</rt_info>
			<input>
				<port id="0" precision="FP32">
					<dim>1</dim>
					<dim>168</dim>
					<dim>3</dim>
					<dim>6</dim>
				</port>
				<port id="1" precision="FP32">
					<dim>1</dim>
					<dim>168</dim>
					<dim>1</dim>
					<dim>1</dim>
				</port>
			</input>
			<output>
				<port id="2" precision="FP32" names="conv7_2">
					<dim>1</dim>
					<dim>168</dim>
					<dim>3</dim>
					<dim>6</dim>
				</port>
			</output>
		</layer>
		<layer id="277" name="relu7_2" type="ReLU" version="opset1">
			<rt_info>
				<attribute name="fused_names" version="0" value="relu7_2"/>
			</rt_info>
			<input>
				<port id="0" precision="FP32">
					<dim>1</dim>
					<dim>168</dim>
					<dim>3</dim>
					<dim>6</dim>
				</port>
			</input>
			<output>
				<port id="1" precision="FP32" names="conv7_2">
					<dim>1</dim>
					<dim>168</dim>
					<dim>3</dim>
					<dim>6</dim>
				</port>
			</output>
		</layer>
		<layer id="278" name="419_compressed" type="Const" version="opset1">
			<data element_type="f16" shape="24, 168, 3, 3" offset="1720760" size="72576"/>
			<output>
				<port id="0" precision="FP16">
					<dim>24</dim>
					<dim>168</dim>
					<dim>3</dim>
					<dim>3</dim>
				</port>
			</output>
		</layer>
		<layer id="279" name="419" type="Convert" version="opset1">
			<data destination_type="f32"/>
			<rt_info>
				<attribute name="decompression" version="0"/>
				<attribute name="fused_names" version="0" value="419"/>
			</rt_info>
			<input>
				<port id="0" precision="FP16">
					<dim>24</dim>
					<dim>168</dim>
					<dim>3</dim>
					<dim>3</dim>
				</port>
			</input>
			<output>
				<port id="1" precision="FP32">
					<dim>24</dim>
					<dim>168</dim>
					<dim>3</dim>
					<dim>3</dim>
				</port>
			</output>
		</layer>
		<layer id="280" name="conv7_2_mbox_loc/WithoutBiases" type="Convolution" version="opset1">
			<data strides="1, 1" dilations="1, 1" pads_begin="1, 1" pads_end="1, 1" auto_pad="explicit"/>
			<rt_info>
				<attribute name="fused_names" version="0" value="conv7_2_mbox_loc/WithoutBiases"/>
			</rt_info>
			<input>
				<port id="0" precision="FP32">
					<dim>1</dim>
					<dim>168</dim>
					<dim>3</dim>
					<dim>6</dim>
				</port>
				<port id="1" precision="FP32">
					<dim>24</dim>
					<dim>168</dim>
					<dim>3</dim>
					<dim>3</dim>
				</port>
			</input>
			<output>
				<port id="2" precision="FP32">
					<dim>1</dim>
					<dim>24</dim>
					<dim>3</dim>
					<dim>6</dim>
				</port>
			</output>
		</layer>
		<layer id="281" name="conv7_2_mbox_loc/Dims7191_compressed" type="Const" version="opset1">
			<data element_type="f16" shape="1, 24, 1, 1" offset="1793336" size="48"/>
			<output>
				<port id="0" precision="FP16">
					<dim>1</dim>
					<dim>24</dim>
					<dim>1</dim>
					<dim>1</dim>
				</port>
			</output>
		</layer>
		<layer id="282" name="conv7_2_mbox_loc/Dims7191" type="Convert" version="opset1">
			<data destination_type="f32"/>
			<rt_info>
				<attribute name="decompression" version="0"/>
				<attribute name="fused_names" version="0" value="conv7_2_mbox_loc/Dims7191"/>
			</rt_info>
			<input>
				<port id="0" precision="FP16">
					<dim>1</dim>
					<dim>24</dim>
					<dim>1</dim>
					<dim>1</dim>
				</port>
			</input>
			<output>
				<port id="1" precision="FP32">
					<dim>1</dim>
					<dim>24</dim>
					<dim>1</dim>
					<dim>1</dim>
				</port>
			</output>
		</layer>
		<layer id="283" name="conv7_2_mbox_loc" type="Add" version="opset1">
			<data auto_broadcast="numpy"/>
			<rt_info>
				<attribute name="fused_names" version="0" value="conv7_2_mbox_loc"/>
			</rt_info>
			<input>
				<port id="0" precision="FP32">
					<dim>1</dim>
					<dim>24</dim>
					<dim>3</dim>
					<dim>6</dim>
				</port>
				<port id="1" precision="FP32">
					<dim>1</dim>
					<dim>24</dim>
					<dim>1</dim>
					<dim>1</dim>
				</port>
			</input>
			<output>
				<port id="2" precision="FP32" names="conv7_2_mbox_loc">
					<dim>1</dim>
					<dim>24</dim>
					<dim>3</dim>
					<dim>6</dim>
				</port>
			</output>
		</layer>
		<layer id="284" name="636" type="Const" version="opset1">
			<data element_type="i64" shape="4" offset="1253368" size="32"/>
			<rt_info>
				<attribute name="fused_names" version="0" value="636"/>
			</rt_info>
			<output>
				<port id="0" precision="I64">
					<dim>4</dim>
				</port>
			</output>
		</layer>
		<layer id="285" name="conv7_2_mbox_loc_perm" type="Transpose" version="opset1">
			<rt_info>
				<attribute name="fused_names" version="0" value="conv7_2_mbox_loc_perm"/>
			</rt_info>
			<input>
				<port id="0" precision="FP32">
					<dim>1</dim>
					<dim>24</dim>
					<dim>3</dim>
					<dim>6</dim>
				</port>
				<port id="1" precision="I64">
					<dim>4</dim>
				</port>
			</input>
			<output>
…
				<port id="0" precision="I64">
					<dim>4</dim>
				</port>
				<port id="1" precision="I64">
					<dim>1</dim>
				</port>
				<port id="2" precision="I64">
					<dim>1</dim>
				</port>
				<port id="3" precision="I64">
					<dim>1</dim>
				</port>
			</input>
			<output>
				<port id="4" precision="I64">
					<dim>2</dim>
				</port>
			</output>
		</layer>
		<layer id="599" name="conv9_2_mbox_priorbox/naked_not_unsqueezed" type="PriorBox" version="opset1">
			<data min_size="337.92" max_size="403.2" aspect_ratio="2" density="" fixed_ratio="" fixed_size="" clip="false" flip="true" step="300" offset="0.5" variance="0.1, 0.1, 0.2, 0.2" scale_all_sizes="true"/>
			<rt_info>
				<attribute name="fused_names" version="0" value="conv9_2_mbox_priorbox/naked_not_unsqueezed"/>
			</rt_info>
			<input>
				<port id="0" precision="I64">
					<dim>2</dim>
				</port>
				<port id="1" precision="I64">
					<dim>2</dim>
				</port>
			</input>
			<output>
				<port id="2" precision="FP32">
					<dim>2</dim>
					<dim>32</dim>
				</port>
			</output>
		</layer>
		<layer id="600" name="conv9_2_mbox_priorbox/unsqueeze/value1582620897" type="Const" version="opset1">
			<data element_type="i64" shape="1" offset="2106080" size="8"/>
			<rt_info>
				<attribute name="fused_names" version="0" value="conv9_2_mbox_priorbox/unsqueeze/value1582620897"/>
			</rt_info>
			<output>
				<port id="0" precision="I64">
					<dim>1</dim>
				</port>
			</output>
		</layer>
		<layer id="601" name="conv9_2_mbox_priorbox" type="Unsqueeze" version="opset1">
			<rt_info>
				<attribute name="fused_names" version="0" value="conv9_2_mbox_priorbox"/>
			</rt_info>
			<input>
				<port id="0" precision="FP32">
					<dim>2</dim>
					<dim>32</dim>
				</port>
				<port id="1" precision="I64">
					<dim>1</dim>
				</port>
			</input>
			<output>
				<port id="2" precision="FP32" names="conv9_2_mbox_priorbox">
					<dim>1</dim>
					<dim>2</dim>
					<dim>32</dim>
				</port>
			</output>
		</layer>
		<layer id="602" name="mbox_priorbox" type="Concat" version="opset1">
			<data axis="2"/>
			<rt_info>
				<attribute name="fused_names" version="0" value="mbox_priorbox"/>
			</rt_info>
			<input>
				<port id="0" precision="FP32">
					<dim>1</dim>
					<dim>2</dim>
					<dim>16128</dim>
				</port>
				<port id="1" precision="FP32">
					<dim>1</dim>
					<dim>2</dim>
					<dim>16128</dim>
				</port>
				<port id="2" precision="FP32">
					<dim>1</dim>
					<dim>2</dim>
					<dim>6048</dim>
				</port>
				<port id="3" precision="FP32">
					<dim>1</dim>
					<dim>2</dim>
					<dim>1584</dim>
				</port>
				<port id="4" precision="FP32">
					<dim>1</dim>
					<dim>2</dim>
					<dim>432</dim>
				</port>
				<port id="5" precision="FP32">
					<dim>1</dim>
					<dim>2</dim>
					<dim>96</dim>
				</port>
				<port id="6" precision="FP32">
					<dim>1</dim>
					<dim>2</dim>
					<dim>32</dim>
				</port>
			</input>
			<output>
				<port id="7" precision="FP32" names="mbox_priorbox">
					<dim>1</dim>
					<dim>2</dim>
					<dim>40448</dim>
				</port>
			</output>
		</layer>
		<layer id="603" name="detection_out" type="DetectionOutput" version="opset8">
			<data background_label_id="0" top_k="400" variance_encoded_in_target="false" keep_top_k="200" code_type="caffe.PriorBoxParameter.CENTER_SIZE" share_location="true" nms_threshold="0.44999998807907104" confidence_threshold="0.0099999997764825821" clip_after_nms="false" clip_before_nms="false" decrease_label_id="false" normalized="true" input_height="1" input_width="1" objectness_score="0"/>
			<rt_info>
				<attribute name="fused_names" version="0" value="detection_out"/>
			</rt_info>
			<input>
				<port id="0" precision="FP32">
					<dim>1</dim>
					<dim>40448</dim>
				</port>
				<port id="1" precision="FP32">
					<dim>1</dim>
					<dim>20224</dim>
				</port>
				<port id="2" precision="FP32">
					<dim>1</dim>
					<dim>2</dim>
					<dim>40448</dim>
				</port>
			</input>
			<output>
				<port id="3" precision="FP32" names="detection_out">
					<dim>1</dim>
					<dim>1</dim>
					<dim>200</dim>
					<dim>7</dim>
				</port>
			</output>
		</layer>
		<layer id="604" name="detection_out/sink_port_0" type="Result" version="opset1">
			<rt_info>
				<attribute name="fused_names" version="0" value="detection_out/sink_port_0"/>
			</rt_info>
			<input>
				<port id="0" precision="FP32">
					<dim>1</dim>
					<dim>1</dim>
					<dim>200</dim>
					<dim>7</dim>
				</port>
			</input>
		</layer>
	</layers>
	<edges>
		<edge from-layer="0" from-port="0" to-layer="3" to-port="0"/>
		<edge from-layer="1" from-port="0" to-layer="2" to-port="0"/>
		<edge from-layer="2" from-port="1" to-layer="3" to-port="1"/>
		<edge from-layer="3" from-port="2" to-layer="6" to-port="0"/>
		<edge from-layer="4" from-port="0" to-layer="5" to-port="0"/>
		<edge from-layer="5" from-port="1" to-layer="6" to-port="1"/>
		<edge from-layer="6" from-port="2" to-layer="523" to-port="0"/>
		<edge from-layer="6" from-port="2" to-layer="9" to-port="0"/>
		<edge from-layer="7" from-port="0" to-layer="8" to-port="0"/>
		<edge from-layer="8" from-port="1" to-layer="9" to-port="1"/>
		<edge from-layer="9" from-port="2" to-layer="12" to-port="0"/>
		<edge from-layer="10" from-port="0" to-layer="11" to-port="0"/>
		<edge from-layer="11" from-port="1" to-layer="12" to-port="1"/>
		<edge from-layer="12" from-port="2" to-layer="13" to-port="0"/>
		<edge from-layer="13" from-port="1" to-layer="16" to-port="0"/>
		<edge from-layer="14" from-port="0" to-layer="15" to-port="0"/>
		<edge from-layer="15" from-port="1" to-layer="16" to-port="1"/>
		<edge from-layer="16" from-port="2" to-layer="19" to-port="0"/>
		<edge from-layer="17" from-port="0" to-layer="18" to-port="0"/>
		<edge from-layer="18" from-port="1" to-layer="19" to-port="1"/>
		<edge from-layer="19" from-port="2" to-layer="20" to-port="0"/>
		<edge from-layer="20" from-port="1" to-layer="23" to-port="0"/>
		<edge from-layer="21" from-port="0" to-layer="22" to-port="0"/>
		<edge from-layer="22" from-port="1" to-layer="23" to-port="1"/>
		<edge from-layer="23" from-port="2" to-layer="26" to-port="0"/>
		<edge from-layer="24" from-port="0" to-layer="25" to-port="0"/>
		<edge from-layer="25" from-port="1" to-layer="26" to-port="1"/>
		<edge from-layer="26" from-port="2" to-layer="27" to-port="0"/>
		<edge from-layer="27" from-port="1" to-layer="30" to-port="0"/>
		<edge from-layer="28" from-port="0" to-layer="29" to-port="0"/>
		<edge from-layer="29" from-port="1" to-layer="30" to-port="1"/>
		<edge from-layer="30" from-port="2" to-layer="33" to-port="0"/>
		<edge from-layer="31" from-port="0" to-layer="32" to-port="0"/>
		<edge from-layer="32" from-port="1" to-layer="33" to-port="1"/>
		<edge from-layer="33" from-port="2" to-layer="34" to-port="0"/>
		<edge from-layer="34" from-port="1" to-layer="37" to-port="0"/>
		<edge from-layer="35" from-port="0" to-layer="36" to-port="0"/>
		<edge from-layer="36" from-port="1" to-layer="37" to-port="1"/>
		<edge from-layer="37" from-port="2" to-layer="40" to-port="0"/>
		<edge from-layer="38" from-port="0" to-layer="39" to-port="0"/>
		<edge from-layer="39" from-port="1" to-layer="40" to-port="1"/>
		<edge from-layer="40" from-port="2" to-layer="41" to-port="0"/>
		<edge from-layer="41" from-port="1" to-layer="44" to-port="0"/>
		<edge from-layer="42" from-port="0" to-layer="43" to-port="0"/>
		<edge from-layer="43" from-port="1" to-layer="44" to-port="1"/>
		<edge from-layer="44" from-port="2" to-layer="47" to-port="0"/>
		<edge from-layer="45" from-port="0" to-layer="46" to-port="0"/>
		<edge from-layer="46" from-port="1" to-layer="47" to-port="1"/>
		<edge from-layer="47" from-port="2" to-layer="48" to-port="0"/>
		<edge from-layer="48" from-port="1" to-layer="51" to-port="0"/>
		<edge from-layer="49" from-port="0" to-layer="50" to-port="0"/>
		<edge from-layer="50" from-port="1" to-layer="51" to-port="1"/>
		<edge from-layer="51" from-port="2" to-layer="54" to-port="0"/>
		<edge from-layer="52" from-port="0" to-layer="53" to-port="0"/>
		<edge from-layer="53" from-port="1" to-layer="54" to-port="1"/>
		<edge from-layer="54" from-port="2" to-layer="55" to-port="0"/>
		<edge from-layer="55" from-port="1" to-layer="58" to-port="0"/>
		<edge from-layer="56" from-port="0" to-layer="57" to-port="0"/>
		<edge from-layer="57" from-port="1" to-layer="58" to-port="1"/>
		<edge from-layer="58" from-port="2" to-layer="61" to-port="0"/>
		<edge from-layer="59" from-port="0" to-layer="60" to-port="0"/>
		<edge from-layer="60" from-port="1" to-layer="61" to-port="1"/>
		<edge from-layer="61" from-port="2" to-layer="62" to-port="0"/>
		<edge from-layer="62" from-port="1" to-layer="65" to-port="0"/>
		<edge from-layer="63" from-port="0" to-layer="64" to-port="0"/>
		<edge from-layer="64" from-port="1" to-layer="65" to-port="1"/>
		<edge from-layer="65" from-port="2" to-layer="68" to-port="0"/>
		<edge from-layer="66" from-port="0" to-layer="67" to-port="0"/>
		<edge from-layer="67" from-port="1" to-layer="68" to-port="1"/>
		<edge from-layer="68" from-port="2" to-layer="69" to-port="0"/>
		<edge from-layer="69" from-port="1" to-layer="72" to-port="0"/>
		<edge from-layer="70" from-port="0" to-layer="71" to-port="0"/>
		<edge from-layer="71" from-port="1" to-layer="72" to-port="1"/>
		<edge from-layer="72" from-port="2" to-layer="75" to-port="0"/>
		<edge from-layer="73" from-port="0" to-layer="74" to-port="0"/>
		<edge from-layer="74" from-port="1" to-layer="75" to-port="1"/>
		<edge from-layer="75" from-port="2" to-layer="76" to-port="0"/>
		<edge from-layer="76" from-port="1" to-layer="79" to-port="0"/>
		<edge from-layer="77" from-port="0" to-layer="78" to-port="0"/>
		<edge from-layer="78" from-port="1" to-layer="79" to-port="1"/>
		<edge from-layer="79" from-port="2" to-layer="82" to-port="0"/>
		<edge from-layer="80" from-port="0" to-layer="81" to-port="0"/>
		<edge from-layer="81" from-port="1" to-layer="82" to-port="1"/>
		<edge from-layer="82" from-port="2" to-layer="83" to-port="0"/>
		<edge from-layer="83" from-port="1" to-layer="86" to-port="0"/>
		<edge from-layer="84" from-port="0" to-layer="85" to-port="0"/>
		<edge from-layer="85" from-port="1" to-layer="86" to-port="1"/>
		<edge from-layer="86" from-port="2" to-layer="89" to-port="0"/>
		<edge from-layer="87" from-port="0" to-layer="88" to-port="0"/>
		<edge from-layer="88" from-port="1" to-layer="89" to-port="1"/>
		<edge from-layer="89" from-port="2" to-layer="90" to-port="0"/>
		<edge from-layer="90" from-port="1" to-layer="93" to-port="0"/>
		<edge from-layer="91" from-port="0" to-layer="92" to-port="0"/>
		<edge from-layer="92" from-port="1" to-layer="93" to-port="1"/>
		<edge from-layer="93" from-port="2" to-layer="96" to-port="0"/>
		<edge from-layer="94" from-port="0" to-layer="95" to-port="0"/>
		<edge from-layer="95" from-port="1" to-layer="96" to-port="1"/>
		<edge from-layer="96" from-port="2" to-layer="97" to-port="0"/>
		<edge from-layer="97" from-port="1" to-layer="100" to-port="0"/>
		<edge from-layer="98" from-port="0" to-layer="99" to-port="0"/>
		<edge from-layer="99" from-port="1" to-layer="100" to-port="1"/>
		<edge from-layer="100" from-port="2" to-layer="103" to-port="0"/>
		<edge from-layer="101" from-port="0" to-layer="102" to-port="0"/>
		<edge from-layer="102" from-port="1" to-layer="103" to-port="1"/>
		<edge from-layer="103" from-port="2" to-layer="104" to-port="0"/>
		<edge from-layer="104" from-port="1" to-layer="107" to-port="0"/>
		<edge from-layer="105" from-port="0" to-layer="106" to-port="0"/>
		<edge from-layer="106" from-port="1" to-layer="107" to-port="1"/>
		<edge from-layer="107" from-port="2" to-layer="110" to-port="0"/>
		<edge from-layer="108" from-port="0" to-layer="109" to-port="0"/>
		<edge from-layer="109" from-port="1" to-layer="110" to-port="1"/>
		<edge from-layer="110" from-port="2" to-layer="111" to-port="0"/>
		<edge from-layer="111" from-port="1" to-layer="114" to-port="0"/>
		<edge from-layer="112" from-port="0" to-layer="113" to-port="0"/>
		<edge from-layer="113" from-port="1" to-layer="114" to-port="1"/>
		<edge from-layer="114" from-port="2" to-layer="117" to-port="0"/>
		<edge from-layer="115" from-port="0" to-layer="116" to-port="0"/>
		<edge from-layer="116" from-port="1" to-layer="117" to-port="1"/>
		<edge from-layer="117" from-port="2" to-layer="118" to-port="0"/>
		<edge from-layer="118" from-port="1" to-layer="121" to-port="0"/>
		<edge from-layer="119" from-port="0" to-layer="120" to-port="0"/>
		<edge from-layer="120" from-port="1" to-layer="121" to-port="1"/>
		<edge from-layer="121" from-port="2" to-layer="124" to-port="0"/>
		<edge from-layer="122" from-port="0" to-layer="123" to-port="0"/>
		<edge from-layer="123" from-port="1" to-layer="124" to-port="1"/>
		<edge from-layer="124" from-port="2" to-layer="125" to-port="0"/>
		<edge from-layer="125" from-port="1" to-layer="128" to-port="0"/>
		<edge from-layer="126" from-port="0" to-layer="127" to-port="0"/>
		<edge from-layer="127" from-port="1" to-layer="128" to-port="1"/>
		<edge from-layer="128" from-port="2" to-layer="131" to-port="0"/>
		<edge from-layer="129" from-port="0" to-layer="130" to-port="0"/>
		<edge from-layer="130" from-port="1" to-layer="131" to-port="1"/>
		<edge from-layer="131" from-port="2" to-layer="132" to-port="0"/>
		<edge from-layer="132" from-port="1" to-layer="135" to-port="0"/>
		<edge from-layer="133" from-port="0" to-layer="134" to-port="0"/>
		<edge from-layer="134" from-port="1" to-layer="135" to-port="1"/>
		<edge from-layer="135" from-port="2" to-layer="138" to-port="0"/>
		<edge from-layer="136" from-port="0" to-layer="137" to-port="0"/>
		<edge from-layer="137" from-port="1" to-layer="138" to-port="1"/>
		<edge from-layer="138" from-port="2" to-layer="139" to-port="0"/>
		<edge from-layer="139" from-port="1" to-layer="142" to-port="0"/>
		<edge from-layer="140" from-port="0" to-layer="141" to-port="0"/>
		<edge from-layer="141" from-port="1" to-layer="142" to-port="1"/>
		<edge from-layer="142" from-port="2" to-layer="145" to-port="0"/>
		<edge from-layer="143" from-port="0" to-layer="144" to-port="0"/>
		<edge from-layer="144" from-port="1" to-layer="145" to-port="1"/>
		<edge from-layer="145" from-port="2" to-layer="146" to-port="0"/>
		<edge from-layer="146" from-port="1" to-layer="149" to-port="0"/>
		<edge from-layer="147" from-port="0" to-layer="148" to-port="0"/>
		<edge from-layer="148" from-port="1" to-layer="149" to-port="1"/>
		<edge from-layer="149" from-port="2" to-layer="152" to-port="0"/>
		<edge from-layer="150" from-port="0" to-layer="151" to-port="0"/>
		<edge from-layer="151" from-port="1" to-layer="152" to-port="1"/>
		<edge from-layer="152" from-port="2" to-layer="153" to-port="0"/>
		<edge from-layer="153" from-port="1" to-layer="156" to-port="0"/>
		<edge from-layer="154" from-port="0" to-layer="155" to-port="0"/>
		<edge from-layer="155" from-port="1" to-layer="156" to-port="1"/>
		<edge from-layer="156" from-port="2" to-layer="159" to-port="0"/>
		<edge from-layer="157" from-port="0" to-layer="158" to-port="0"/>
		<edge from-layer="158" from-port="1" to-layer="159" to-port="1"/>
		<edge from-layer="159" from-port="2" to-layer="160" to-port="0"/>
		<edge from-layer="160" from-port="1" to-layer="163" to-port="0"/>
		<edge from-layer="161" from-port="0" to-layer="162" to-port="0"/>
		<edge from-layer="162" from-port="1" to-layer="163" to-port="1"/>
		<edge from-layer="163" from-port="2" to-layer="166" to-port="0"/>
		<edge from-layer="164" from-port="0" to-layer="165" to-port="0"/>
		<edge from-layer="165" from-port="1" to-layer="166" to-port="1"/>
		<edge from-layer="166" from-port="2" to-layer="167" to-port="0"/>
		<edge from-layer="167" from-port="1" to-layer="170" to-port="0"/>
		<edge from-layer="167" from-port="1" to-layer="180" to-port="0"/>
		<edge from-layer="167" from-port="1" to-layer="353" to-port="0"/>
		<edge from-layer="167" from-port="1" to-layer="518" to-port="0"/>
		<edge from-layer="167" from-port="1" to-layer="190" to-port="0"/>
		<edge from-layer="168" from-port="0" to-layer="169" to-port="0"/>
		<edge from-layer="169" from-port="1" to-layer="170" to-port="1"/>
		<edge from-layer="170" from-port="2" to-layer="173" to-port="0"/>
		<edge from-layer="171" from-port="0" to-layer="172" to-port="0"/>
		<edge from-layer="172" from-port="1" to-layer="173" to-port="1"/>
		<edge from-layer="173" from-port="2" to-layer="175" to-port="0"/>
		<edge from-layer="174" from-port="0" to-layer="175" to-port="1"/>
		<edge from-layer="175" from-port="2" to-layer="177" to-port="0"/>
		<edge from-layer="176" from-port="0" to-layer="177" to-port="1"/>
		<edge from-layer="177" from-port="2" to-layer="350" to-port="0"/>
		<edge from-layer="178" from-port="0" to-layer="179" to-port="0"/>
		<edge from-layer="179" from-port="1" to-layer="180" to-port="1"/>
		<edge from-layer="180" from-port="2" to-layer="183" to-port="0"/>
		<edge from-layer="181" from-port="0" to-layer="182" to-port="0"/>
		<edge from-layer="182" from-port="1" to-layer="183" to-port="1"/>
		<edge from-layer="183" from-port="2" to-layer="185" to-port="0"/>
		<edge from-layer="184" from-port="0" to-layer="185" to-port="1"/>
		<edge from-layer="185" from-port="2" to-layer="187" to-port="0"/>
		<edge from-layer="186" from-port="0" to-layer="187" to-port="1"/>
		<edge from-layer="187" from-port="2" to-layer="350" to-port="1"/>
		<edge from-layer="188" from-port="0" to-layer="189" to-port="0"/>
		<edge from-layer="189" from-port="1" to-layer="190" to-port="1"/>
		<edge from-layer="190" from-port="2" to-layer="193" to-port="0"/>
		<edge from-layer="191" from-port="0" to-layer="192" to-port="0"/>
		<edge from-layer="192" from-port="1" to-layer="193" to-port="1"/>
		<edge from-layer="193" from-port="2" to-layer="194" to-port="0"/>
		<edge from-layer="194" from-port="1" to-layer="197" to-port="0"/>
		<edge from-layer="195" from-port="0" to-layer="196" to-port="0"/>
		<edge from-layer="196" from-port="1" to-layer="197" to-port="1"/>
		<edge from-layer="197" from-port="2" to-layer="200" to-port="0"/>
		<edge from-layer="198" from-port="0" to-layer="199" to-port="0"/>
		<edge from-layer="199" from-port="1" to-layer="200" to-port="1"/>
		<edge from-layer="200" from-port="2" to-layer="201" to-port="0"/>
		<edge from-layer="201" from-port="1" to-layer="204" to-port="0"/>
		<edge from-layer="202" from-port="0" to-layer="203" to-port="0"/>
		<edge from-layer="203" from-port="1" to-layer="204" to-port="1"/>
		<edge from-layer="204" from-port="2" to-layer="207" to-port="0"/>
		<edge from-layer="205" from-port="0" to-layer="206" to-port="0"/>
		<edge from-layer="206" from-port="1" to-layer="207" to-port="1"/>
		<edge from-layer="207" from-port="2" to-layer="208" to-port="0"/>
		<edge from-layer="208" from-port="1" to-layer="211" to-port="0"/>
		<edge from-layer="209" from-port="0" to-layer="210" to-port="0"/>
		<edge from-layer="210" from-port="1" to-layer="211" to-port="1"/>
		<edge from-layer="211" from-port="2" to-layer="214" to-port="0"/>
		<edge from-layer="212" from-port="0" to-layer="213" to-port="0"/>
		<edge from-layer="213" from-port="1" to-layer="214" to-port="1"/>
		<edge from-layer="214" from-port="2" to-layer="215" to-port="0"/>
		<edge from-layer="215" from-port="1" to-layer="394" to-port="0"/>
		<edge from-layer="215" from-port="1" to-layer="218" to-port="0"/>
		<edge from-layer="215" from-port="1" to-layer="542" to-port="0"/>
		<edge from-layer="215" from-port="1" to-layer="228" to-port="0"/>
		<edge from-layer="216" from-port="0" to-layer="217" to-port="0"/>
		<edge from-layer="217" from-port="1" to-layer="218" to-port="1"/>
		<edge from-layer="218" from-port="2" to-layer="221" to-port="0"/>
		<edge from-layer="219" from-port="0" to-layer="220" to-port="0"/>
		<edge from-layer="220" from-port="1" to-layer="221" to-port="1"/>
		<edge from-layer="221" from-port="2" to-layer="223" to-port="0"/>
		<edge from-layer="222" from-port="0" to-layer="223" to-port="1"/>
		<edge from-layer="223" from-port="2" to-layer="225" to-port="0"/>
		<edge from-layer="224" from-port="0" to-layer="225" to-port="1"/>
		<edge from-layer="225" from-port="2" to-layer="350" to-port="2"/>
		<edge from-layer="226" from-port="0" to-layer="227" to-port="0"/>
		<edge from-layer="227" from-port="1" to-layer="228" to-port="1"/>
		<edge from-layer="228" from-port="2" to-layer="231" to-port="0"/>
		<edge from-layer="229" from-port="0" to-layer="230" to-port="0"/>
		<edge from-layer="230" from-port="1" to-layer="231" to-port="1"/>
		<edge from-layer="231" from-port="2" to-layer="232" to-port="0"/>
		<edge from-layer="232" from-port="1" to-layer="235" to-port="0"/>
		<edge from-layer="233" from-port="0" to-layer="234" to-port="0"/>
		<edge from-layer="234" from-port="1" to-layer="235" to-port="1"/>
		<edge from-layer="235" from-port="2" to-layer="238" to-port="0"/>
		<edge from-layer="236" from-port="0" to-layer="237" to-port="0"/>
		<edge from-layer="237" from-port="1" to-layer="238" to-port="1"/>
		<edge from-layer="238" from-port="2" to-layer="239" to-port="0"/>
		<edge from-layer="239" from-port="1" to-layer="242" to-port="0"/>
		<edge from-layer="240" from-port="0" to-layer="241" to-port="0"/>
		<edge from-layer="241" from-port="1" to-layer="242" to-port="1"/>
		<edge from-layer="242" from-port="2" to-layer="245" to-port="0"/>
		<edge from-layer="243" from-port="0" to-layer="244" to-port="0"/>
		<edge from-layer="244" from-port="1" to-layer="245" to-port="1"/>
		<edge from-layer="245" from-port="2" to-layer="246" to-port="0"/>
		<edge from-layer="246" from-port="1" to-layer="418" to-port="0"/>
		<edge from-layer="246" from-port="1" to-layer="259" to-port="0"/>
		<edge from-layer="246" from-port="1" to-layer="249" to-port="0"/>
		<edge from-layer="246" from-port="1" to-layer="554" to-port="0"/>
		<edge from-layer="247" from-port="0" to-layer="248" to-port="0"/>
		<edge from-layer="248" from-port="1" to-layer="249" to-port="1"/>
		<edge from-layer="249" from-port="2" to-layer="252" to-port="0"/>
		<edge from-layer="250" from-port="0" to-layer="251" to-port="0"/>
		<edge from-layer="251" from-port="1" to-layer="252" to-port="1"/>
		<edge from-layer="252" from-port="2" to-layer="254" to-port="0"/>
		<edge from-layer="253" from-port="0" to-layer="254" to-port="1"/>
		<edge from-layer="254" from-port="2" to-layer="256" to-port="0"/>
		<edge from-layer="255" from-port="0" to-layer="256" to-port="1"/>
		<edge from-layer="256" from-port="2" to-layer="350" to-port="3"/>
		<edge from-layer="257" from-port="0" to-layer="258" to-port="0"/>
		<edge from-layer="258" from-port="1" to-layer="259" to-port="1"/>
		<edge from-layer="259" from-port="2" to-layer="262" to-port="0"/>
		<edge from-layer="260" from-port="0" to-layer="261" to-port="0"/>
		<edge from-layer="261" from-port="1" to-layer="262" to-port="1"/>
		<edge from-layer="262" from-port="2" to-layer="263" to-port="0"/>
		<edge from-layer="263" from-port="1" to-layer="266" to-port="0"/>
		<edge from-layer="264" from-port="0" to-layer="265" to-port="0"/>
		<edge from-layer="265" from-port="1" to-layer="266" to-port="1"/>
		<edge from-layer="266" from-port="2" to-layer="269" to-port="0"/>
		<edge from-layer="267" from-port="0" to-layer="268" to-port="0"/>
		<edge from-layer="268" from-port="1" to-layer="269" to-port="1"/>
		<edge from-layer="269" from-port="2" to-layer="270" to-port="0"/>
		<edge from-layer="270" from-port="1" to-layer="273" to-port="0"/>
		<edge from-layer="271" from-port="0" to-layer="272" to-port="0"/>
		<edge from-layer="272" from-port="1" to-layer="273" to-port="1"/>
		<edge from-layer="273" from-port="2" to-layer="276" to-port="0"/>
		<edge from-layer="274" from-port="0" to-layer="275" to-port="0"/>
		<edge from-layer="275" from-port="1" to-layer="276" to-port="1"/>
		<edge from-layer="276" from-port="2" to-layer="277" to-port="0"/>
		<edge from-layer="277" from-port="1" to-layer="290" to-port="0"/>
		<edge from-layer="277" from-port="1" to-layer="280" to-port="0"/>
		<edge from-layer="277" from-port="1" to-layer="442" to-port="0"/>
		<edge from-layer="277" from-port="1" to-layer="566" to-port="0"/>
		<edge from-layer="278" from-port="0" to-layer="279" to-port="0"/>
		<edge from-layer="279" from-port="1" to-layer="280" to-port="1"/>
		<edge from-layer="280" from-port="2" to-layer="283" to-port="0"/>
		<edge from-layer="281" from-port="0" to-layer="282" to-port="0"/>
		<edge from-layer="282" from-port="1" to-layer="283" to-port="1"/>
		<edge from-layer="283" from-port="2" to-layer="285" to-port="0"/>
		<edge from-layer="284" from-port="0" to-layer="285" to-port="1"/>
		<edge from-layer="285" from-port="2" to-layer="287" to-port="0"/>
		<edge from-layer="286" from-port="0" to-layer="287" to-port="1"/>
		<edge from-layer="287" from-port="2" to-layer="350" to-port="4"/>
		<edge from-layer="288" from-port="0" to-layer="289" to-port="0"/>
		<edge from-layer="289" from-port="1" to-layer="290" to-port="1"/>
		<edge from-layer="290" from-port="2" to-layer="293" to-port="0"/>
		<edge from-layer="291" from-port="0" to-layer="292" to-port="0"/>
		<edge from-layer="292" from-port="1" to-layer="293" to-port="1"/>
		<edge from-layer="293" from-port="2" to-layer="294" to-port="0"/>
		<edge from-layer="294" from-port="1" to-layer="297" to-port="0"/>
		<edge from-layer="295" from-port="0" to-layer="296" to-port="0"/>
		<edge from-layer="296" from-port="1" to-layer="297" to-port="1"/>
		<edge from-layer="297" from-port="2" to-layer="300" to-port="0"/>
		<edge from-layer="298" from-port="0" to-layer="299" to-port="0"/>
		<edge from-layer="299" from-port="1" to-layer="300" to-port="1"/>
		<edge from-layer="300" from-port="2" to-layer="301" to-port="0"/>
		<edge from-layer="301" from-port="1" to-layer="304" to-port="0"/>
		<edge from-layer="302" from-port="0" to-layer="303" to-port="0"/>
		<edge from-layer="303" from-port="1" to-layer="304" to-port="1"/>
		<edge from-layer="304" from-port="2" to-layer="307" to-port="0"/>
		<edge from-layer="305" from-port="0" to-layer="306" to-port="0"/>
		<edge from-layer="306" from-port="1" to-layer="307" to-port="1"/>
		<edge from-layer="307" from-port="2" to-layer="308" to-port="0"/>
		<edge from-layer="308" from-port="1" to-layer="321" to-port="0"/>
		<edge from-layer="308" from-port="1" to-layer="466" to-port="0"/>
		<edge from-layer="308" from-port="1" to-layer="578" to-port="0"/>
		<edge from-layer="308" from-port="1" to-layer="311" to-port="0"/>
		<edge from-layer="309" from-port="0" to-layer="310" to-port="0"/>
		<edge from-layer="310" from-port="1" to-layer="311" to-port="1"/>
		<edge from-layer="311" from-port="2" to-layer="314" to-port="0"/>
		<edge from-layer="312" from-port="0" to-layer="313" to-port="0"/>
		<edge from-layer="313" from-port="1" to-layer="314" to-port="1"/>
		<edge from-layer="314" from-port="2" to-layer="316" to-port="0"/>
		<edge from-layer="315" from-port="0" to-layer="316" to-port="1"/>
		<edge from-layer="316" from-port="2" to-layer="318" to-port="0"/>
		<edge from-layer="317" from-port="0" to-layer="318" to-port="1"/>
		<edge from-layer="318" from-port="2" to-layer="350" to-port="5"/>
		<edge from-layer="319" from-port="0" to-layer="320" to-port="0"/>
		<edge from-layer="320" from-port="1" to-layer="321" to-port="1"/>
		<edge from-layer="321" from-port="2" to-layer="324" to-port="0"/>
		<edge from-layer="322" from-port="0" to-layer="323" to-port="0"/>
		<edge from-layer="323" from-port="1" to-layer="324" to-port="1"/>
		<edge from-layer="324" from-port="2" to-layer="325" to-port="0"/>
		<edge from-layer="325" from-port="1" to-layer="328" to-port="0"/>
		<edge from-layer="326" from-port="0" to-layer="327" to-port="0"/>
		<edge from-layer="327" from-port="1" to-layer="328" to-port="1"/>
		<edge from-layer="328" from-port="2" to-layer="331" to-port="0"/>
		<edge from-layer="329" from-port="0" to-layer="330" to-port="0"/>
		<edge from-layer="330" from-port="1" to-layer="331" to-port="1"/>
		<edge from-layer="331" from-port="2" to-layer="332" to-port="0"/>
		<edge from-layer="332" from-port="1" to-layer="335" to-port="0"/>
		<edge from-layer="333" from-port="0" to-layer="334" to-port="0"/>
		<edge from-layer="334" from-port="1" to-layer="335" to-port="1"/>
		<edge from-layer="335" from-port="2" to-layer="338" to-port="0"/>
		<edge from-layer="336" from-port="0" to-layer="337" to-port="0"/>
		<edge from-layer="337" from-port="1" to-layer="338" to-port="1"/>
		<edge from-layer="338" from-port="2" to-layer="339" to-port="0"/>
		<edge from-layer="339" from-port="1" to-layer="590" to-port="0"/>
		<edge from-layer="339" from-port="1" to-layer="342" to-port="0"/>
		<edge from-layer="339" from-port="1" to-layer="490" to-port="0"/>
		<edge from-layer="340" from-port="0" to-layer="341" to-port="0"/>
		<edge from-layer="341" from-port="1" to-layer="342" to-port="1"/>
		<edge from-layer="342" from-port="2" to-layer="345" to-port="0"/>
		<edge from-layer="343" from-port="0" to-layer="344" to-port="0"/>
		<edge from-layer="344" from-port="1" to-layer="345" to-port="1"/>
		<edge from-layer="345" from-port="2" to-layer="347" to-port="0"/>
		<edge from-layer="346" from-port="0" to-layer="347" to-port="1"/>
		<edge from-layer="347" from-port="2" to-layer="349" to-port="0"/>
		<edge from-layer="348" from-port="0" to-layer="349" to-port="1"/>
		<edge from-layer="349" from-port="2" to-layer="350" to-port="6"/>
		<edge from-layer="350" from-port="7" to-layer="603" to-port="0"/>
		<edge from-layer="351" from-port="0" to-layer="352" to-port="0"/>
		<edge from-layer="352" from-port="1" to-layer="353" to-port="1"/>
		<edge from-layer="353" from-port="2" to-layer="356" to-port="0"/>
		<edge from-layer="354" from-port="0" to-layer="355" to-port="0"/>
		<edge from-layer="355" from-port="1" to-layer="356" to-port="1"/>
		<edge from-layer="356" from-port="2" to-layer="357" to-port="0"/>
		<edge from-layer="357" from-port="1" to-layer="360" to-port="0"/>
		<edge from-layer="357" from-port="1" to-layer="377" to-port="0"/>
		<edge from-layer="358" from-port="0" to-layer="359" to-port="0"/>
		<edge from-layer="359" from-port="1" to-layer="360" to-port="1"/>
		<edge from-layer="360" from-port="2" to-layer="363" to-port="0"/>
		<edge from-layer="361" from-port="0" to-layer="362" to-port="0"/>
		<edge from-layer="362" from-port="1" to-layer="363" to-port="1"/>
		<edge from-layer="363" from-port="2" to-layer="364" to-port="0"/>
		<edge from-layer="364" from-port="1" to-layer="367" to-port="0"/>
		<edge from-layer="365" from-port="0" to-layer="366" to-port="0"/>
		<edge from-layer="366" from-port="1" to-layer="367" to-port="1"/>
		<edge from-layer="367" from-port="2" to-layer="370" to-port="0"/>
		<edge from-layer="368" from-port="0" to-layer="369" to-port="0"/>
		<edge from-layer="369" from-port="1" to-layer="370" to-port="1"/>
		<edge from-layer="370" from-port="2" to-layer="372" to-port="0"/>
		<edge from-layer="371" from-port="0" to-layer="372" to-port="1"/>
		<edge from-layer="372" from-port="2" to-layer="374" to-port="0"/>
		<edge from-layer="373" from-port="0" to-layer="374" to-port="1"/>
		<edge from-layer="374" from-port="2" to-layer="512" to-port="0"/>
		<edge from-layer="375" from-port="0" to-layer="376" to-port="0"/>
		<edge from-layer="376" from-port="1" to-layer="377" to-port="1"/>
		<edge from-layer="377" from-port="2" to-layer="380" to-port="0"/>
		<edge from-layer="378" from-port="0" to-layer="379" to-port="0"/>
		<edge from-layer="379" from-port="1" to-layer="380" to-port="1"/>
		<edge from-layer="380" from-port="2" to-layer="381" to-port="0"/>
		<edge from-layer="381" from-port="1" to-layer="384" to-port="0"/>
		<edge from-layer="382" from-port="0" to-layer="383" to-port="0"/>
		<edge from-layer="383" from-port="1" to-layer="384" to-port="1"/>
		<edge from-layer="384" from-port="2" to-layer="387" to-port="0"/>
		<edge from-layer="385" from-port="0" to-layer="386" to-port="0"/>
		<edge from-layer="386" from-port="1" to-layer="387" to-port="1"/>
		<edge from-layer="387" from-port="2" to-layer="389" to-port="0"/>
		<edge from-layer="388" from-port="0" to-layer="389" to-port="1"/>
		<edge from-layer="389" from-port="2" to-layer="391" to-port="0"/>
		<edge from-layer="390" from-port="0" to-layer="391" to-port="1"/>
		<edge from-layer="391" from-port="2" to-layer="512" to-port="1"/>
		<edge from-layer="392" from-port="0" to-layer="393" to-port="0"/>
		<edge from-layer="393" from-port="1" to-layer="394" to-port="1"/>
		<edge from-layer="394" from-port="2" to-layer="397" to-port="0"/>
		<edge from-layer="395" from-port="0" to-layer="396" to-port="0"/>
		<edge from-layer="396" from-port="1" to-layer="397" to-port="1"/>
		<edge from-layer="397" from-port="2" to-layer="398" to-port="0"/>
		<edge from-layer="398" from-port="1" to-layer="401" to-port="0"/>
		<edge from-layer="399" from-port="0" to-layer="400" to-port="0"/>
		<edge from-layer="400" from-port="1" to-layer="401" to-port="1"/>
		<edge from-layer="401" from-port="2" to-layer="404" to-port="0"/>
		<edge from-layer="402" from-port="0" to-layer="403" to-port="0"/>
		<edge from-layer="403" from-port="1" to-layer="404" to-port="1"/>
		<edge from-layer="404" from-port="2" to-layer="405" to-port="0"/>
		<edge from-layer="405" from-port="1" to-layer="408" to-port="0"/>
		<edge from-layer="406" from-port="0" to-layer="407" to-port="0"/>
		<edge from-layer="407" from-port="1" to-layer="408" to-port="1"/>
		<edge from-layer="408" from-port="2" to-layer="411" to-port="0"/>
		<edge from-layer="409" from-port="0" to-layer="410" to-port="0"/>
		<edge from-layer="410" from-port="1" to-layer="411" to-port="1"/>
		<edge from-layer="411" from-port="2" to-layer="413" to-port="0"/>
		<edge from-layer="412" from-port="0" to-layer="413" to-port="1"/>
		<edge from-layer="413" from-port="2" to-layer="415" to-port="0"/>
		<edge from-layer="414" from-port="0" to-layer="415" to-port="1"/>
		<edge from-layer="415" from-port="2" to-layer="512" to-port="2"/>
		<edge from-layer="416" from-port="0" to-layer="417" to-port="0"/>
		<edge from-layer="417" from-port="1" to-layer="418" to-port="1"/>
		<edge from-layer="418" from-port="2" to-layer="421" to-port="0"/>
		<edge from-layer="419" from-port="0" to-layer="420" to-port="0"/>
		<edge from-layer="420" from-port="1" to-layer="421" to-port="1"/>
		<edge from-layer="421" from-port="2" to-layer="422" to-port="0"/>
		<edge from-layer="422" from-port="1" to-layer="425" to-port="0"/>
		<edge from-layer="423" from-port="0" to-layer="424" to-port="0"/>
		<edge from-layer="424" from-port="1" to-layer="425" to-port="1"/>
		<edge from-layer="425" from-port="2" to-layer="428" to-port="0"/>
		<edge from-layer="426" from-port="0" to-layer="427" to-port="0"/>
		<edge from-layer="427" from-port="1" to-layer="428" to-port="1"/>
		<edge from-layer="428" from-port="2" to-layer="429" to-port="0"/>
		<edge from-layer="429" from-port="1" to-layer="432" to-port="0"/>
		<edge from-layer="430" from-port="0" to-layer="431" to-port="0"/>
		<edge from-layer="431" from-port="1" to-layer="432" to-port="1"/>
		<edge from-layer="432" from-port="2" to-layer="435" to-port="0"/>
		<edge from-layer="433" from-port="0" to-layer="434" to-port="0"/>
		<edge from-layer="434" from-port="1" to-layer="435" to-port="1"/>
		<edge from-layer="435" from-port="2" to-layer="437" to-port="0"/>
		<edge from-layer="436" from-port="0" to-layer="437" to-port="1"/>
		<edge from-layer="437" from-port="2" to-layer="439" to-port="0"/>
		<edge from-layer="438" from-port="0" to-layer="439" to-port="1"/>
		<edge from-layer="439" from-port="2" to-layer="512" to-port="3"/>
		<edge from-layer="440" from-port="0" to-layer="441" to-port="0"/>
		<edge from-layer="441" from-port="1" to-layer="442" to-port="1"/>
		<edge from-layer="442" from-port="2" to-layer="445" to-port="0"/>
		<edge from-layer="443" from-port="0" to-layer="444" to-port="0"/>
		<edge from-layer="444" from-port="1" to-layer="445" to-port="1"/>
		<edge from-layer="445" from-port="2" to-layer="446" to-port="0"/>
		<edge from-layer="446" from-port="1" to-layer="449" to-port="0"/>
		<edge from-layer="447" from-port="0" to-layer="448" to-port="0"/>
		<edge from-layer="448" from-port="1" to-layer="449" to-port="1"/>
		<edge from-layer="449" from-port="2" to-layer="452" to-port="0"/>
		<edge from-layer="450" from-port="0" to-layer="451" to-port="0"/>
		<edge from-layer="451" from-port="1" to-layer="452" to-port="1"/>
		<edge from-layer="452" from-port="2" to-layer="453" to-port="0"/>
		<edge from-layer="453" from-port="1" to-layer="456" to-port="0"/>
		<edge from-layer="454" from-port="0" to-layer="455" to-port="0"/>
		<edge from-layer="455" from-port="1" to-layer="456" to-port="1"/>
		<edge from-layer="456" from-port="2" to-layer="459" to-port="0"/>
		<edge from-layer="457" from-port="0" to-layer="458" to-port="0"/>
		<edge from-layer="458" from-port="1" to-layer="459" to-port="1"/>
		<edge from-layer="459" from-port="2" to-layer="461" to-port="0"/>
		<edge from-layer="460" from-port="0" to-layer="461" to-port="1"/>
		<edge from-layer="461" from-port="2" to-layer="463" to-port="0"/>
		<edge from-layer="462" from-port="0" to-layer="463" to-port="1"/>
		<edge from-layer="463" from-port="2" to-layer="512" to-port="4"/>
		<edge from-layer="464" from-port="0" to-layer="465" to-port="0"/>
		<edge from-layer="465" from-port="1" to-layer="466" to-port="1"/>
		<edge from-layer="466" from-port="2" to-layer="469" to-port="0"/>
		<edge from-layer="467" from-port="0" to-layer="468" to-port="0"/>
		<edge from-layer="468" from-port="1" to-layer="469" to-port="1"/>
		<edge from-layer="469" from-port="2" to-layer="470" to-port="0"/>
		<edge from-layer="470" from-port="1" to-layer="473" to-port="0"/>
		<edge from-layer="471" from-port="0" to-layer="472" to-port="0"/>
		<edge from-layer="472" from-port="1" to-layer="473" to-port="1"/>
		<edge from-layer="473" from-port="2" to-layer="476" to-port="0"/>
		<edge from-layer="474" from-port="0" to-layer="475" to-port="0"/>
		<edge from-layer="475" from-port="1" to-layer="476" to-port="1"/>
		<edge from-layer="476" from-port="2" to-layer="477" to-port="0"/>
		<edge from-layer="477" from-port="1" to-layer="480" to-port="0"/>
		<edge from-layer="478" from-port="0" to-layer="479" to-port="0"/>
		<edge from-layer="479" from-port="1" to-layer="480" to-port="1"/>
		<edge from-layer="480" from-port="2" to-layer="483" to-port="0"/>
		<edge from-layer="481" from-port="0" to-layer="482" to-port="0"/>
		<edge from-layer="482" from-port="1" to-layer="483" to-port="1"/>
		<edge from-layer="483" from-port="2" to-layer="485" to-port="0"/>
		<edge from-layer="484" from-port="0" to-layer="485" to-port="1"/>
		<edge from-layer="485" from-port="2" to-layer="487" to-port="0"/>
		<edge from-layer="486" from-port="0" to-layer="487" to-port="1"/>
		<edge from-layer="487" from-port="2" to-layer="512" to-port="5"/>
		<edge from-layer="488" from-port="0" to-layer="489" to-port="0"/>
		<edge from-layer="489" from-port="1" to-layer="490" to-port="1"/>
		<edge from-layer="490" from-port="2" to-layer="493" to-port="0"/>
		<edge from-layer="491" from-port="0" to-layer="492" to-port="0"/>
		<edge from-layer="492" from-port="1" to-layer="493" to-port="1"/>
		<edge from-layer="493" from-port="2" to-layer="494" to-port="0"/>
		<edge from-layer="494" from-port="1" to-layer="497" to-port="0"/>
		<edge from-layer="495" from-port="0" to-layer="496" to-port="0"/>
		<edge from-layer="496" from-port="1" to-layer="497" to-port="1"/>
		<edge from-layer="497" from-port="2" to-layer="500" to-port="0"/>
		<edge from-layer="498" from-port="0" to-layer="499" to-port="0"/>
		<edge from-layer="499" from-port="1" to-layer="500" to-port="1"/>
		<edge from-layer="500" from-port="2" to-layer="501" to-port="0"/>
		<edge from-layer="501" from-port="1" to-layer="504" to-port="0"/>
		<edge from-layer="502" from-port="0" to-layer="503" to-port="0"/>
		<edge from-layer="503" from-port="1" to-layer="504" to-port="1"/>
		<edge from-layer="504" from-port="2" to-layer="507" to-port="0"/>
		<edge from-layer="505" from-port="0" to-layer="506" to-port="0"/>
		<edge from-layer="506" from-port="1" to-layer="507" to-port="1"/>
		<edge from-layer="507" from-port="2" to-layer="509" to-port="0"/>
		<edge from-layer="508" from-port="0" to-layer="509" to-port="1"/>
		<edge from-layer="509" from-port="2" to-layer="511" to-port="0"/>
		<edge from-layer="510" from-port="0" to-layer="511" to-port="1"/>
		<edge from-layer="511" from-port="2" to-layer="512" to-port="6"/>
		<edge from-layer="512" from-port="7" to-layer="514" to-port="0"/>
		<edge from-layer="513" from-port="0" to-layer="514" to-port="1"/>
		<edge from-layer="514" from-port="2" to-layer="515" to-port="0"/>
		<edge from-layer="515" from-port="1" to-layer="517" to-port="0"/>
		<edge from-layer="516" from-port="0" to-layer="517" to-port="1"/>
		<edge from-layer="517" from-port="2" to-layer="603" to-port="1"/>
		<edge from-layer="518" from-port="1" to-layer="522" to-port="0"/>
		<edge from-layer="518" from-port="1" to-layer="534" to-port="0"/>
		<edge from-layer="519" from-port="0" to-layer="522" to-port="1"/>
		<edge from-layer="520" from-port="0" to-layer="522" to-port="2"/>
		<edge from-layer="521" from-port="0" to-layer="522" to-port="3"/>
		<edge from-layer="522" from-port="4" to-layer="528" to-port="0"/>
		<edge from-layer="523" from-port="1" to-layer="598" to-port="0"/>
		<edge from-layer="523" from-port="1" to-layer="586" to-port="0"/>
		<edge from-layer="523" from-port="1" to-layer="574" to-port="0"/>
		<edge from-layer="523" from-port="1" to-layer="550" to-port="0"/>
		<edge from-layer="523" from-port="1" to-layer="562" to-port="0"/>
		<edge from-layer="523" from-port="1" to-layer="527" to-port="0"/>
		<edge from-layer="523" from-port="1" to-layer="538" to-port="0"/>
		<edge from-layer="524" from-port="0" to-layer="527" to-port="1"/>
		<edge from-layer="525" from-port="0" to-layer="527" to-port="2"/>
		<edge from-layer="526" from-port="0" to-layer="527" to-port="3"/>
		<edge from-layer="527" from-port="4" to-layer="528" to-port="1"/>
		<edge from-layer="528" from-port="2" to-layer="530" to-port="0"/>
		<edge from-layer="529" from-port="0" to-layer="530" to-port="1"/>
		<edge from-layer="530" from-port="2" to-layer="602" to-port="0"/>
		<edge from-layer="531" from-port="0" to-layer="534" to-port="1"/>
		<edge from-layer="532" from-port="0" to-layer="534" to-port="2"/>
		<edge from-layer="533" from-port="0" to-layer="534" to-port="3"/>
		<edge from-layer="534" from-port="4" to-layer="539" to-port="0"/>
		<edge from-layer="535" from-port="0" to-layer="538" to-port="1"/>
		<edge from-layer="536" from-port="0" to-layer="538" to-port="2"/>
		<edge from-layer="537" from-port="0" to-layer="538" to-port="3"/>
		<edge from-layer="538" from-port="4" to-layer="539" to-port="1"/>
		<edge from-layer="539" from-port="2" to-layer="541" to-port="0"/>
		<edge from-layer="540" from-port="0" to-layer="541" to-port="1"/>
		<edge from-layer="541" from-port="2" to-layer="602" to-port="1"/>
		<edge from-layer="542" from-port="1" to-layer="546" to-port="0"/>
		<edge from-layer="543" from-port="0" to-layer="546" to-port="1"/>
		<edge from-layer="544" from-port="0" to-layer="546" to-port="2"/>
		<edge from-layer="545" from-port="0" to-layer="546" to-port="3"/>
		<edge from-layer="546" from-port="4" to-layer="551" to-port="0"/>
		<edge from-layer="547" from-port="0" to-layer="550" to-port="1"/>
		<edge from-layer="548" from-port="0" to-layer="550" to-port="2"/>
		<edge from-layer="549" from-port="0" to-layer="550" to-port="3"/>
		<edge from-layer="550" from-port="4" to-layer="551" to-port="1"/>
		<edge from-layer="551" from-port="2" to-layer="553" to-port="0"/>
		<edge from-layer="552" from-port="0" to-layer="553" to-port="1"/>
		<edge from-layer="553" from-port="2" to-layer="602" to-port="2"/>
		<edge from-layer="554" from-port="1" to-layer="558" to-port="0"/>
		<edge from-layer="555" from-port="0" to-layer="558" to-port="1"/>
		<edge from-layer="556" from-port="0" to-layer="558" to-port="2"/>
		<edge from-layer="557" from-port="0" to-layer="558" to-port="3"/>
		<edge from-layer="558" from-port="4" to-layer="563" to-port="0"/>
		<edge from-layer="559" from-port="0" to-layer="562" to-port="1"/>
		<edge from-layer="560" from-port="0" to-layer="562" to-port="2"/>
		<edge from-layer="561" from-port="0" to-layer="562" to-port="3"/>
		<edge from-layer="562" from-port="4" to-layer="563" to-port="1"/>
		<edge from-layer="563" from-port="2" to-layer="565" to-port="0"/>
		<edge from-layer="564" from-port="0" to-layer="565" to-port="1"/>
		<edge from-layer="565" from-port="2" to-layer="602" to-port="3"/>
		<edge from-layer="566" from-port="1" to-layer="570" to-port="0"/>
		<edge from-layer="567" from-port="0" to-layer="570" to-port="1"/>
		<edge from-layer="568" from-port="0" to-layer="570" to-port="2"/>
		<edge from-layer="569" from-port="0" to-layer="570" to-port="3"/>
		<edge from-layer="570" from-port="4" to-layer="575" to-port="0"/>
		<edge from-layer="571" from-port="0" to-layer="574" to-port="1"/>
		<edge from-layer="572" from-port="0" to-layer="574" to-port="2"/>
		<edge from-layer="573" from-port="0" to-layer="574" to-port="3"/>
		<edge from-layer="574" from-port="4" to-layer="575" to-port="1"/>
		<edge from-layer="575" from-port="2" to-layer="577" to-port="0"/>
		<edge from-layer="576" from-port="0" to-layer="577" to-port="1"/>
		<edge from-layer="577" from-port="2" to-layer="602" to-port="4"/>
		<edge from-layer="578" from-port="1" to-layer="582" to-port="0"/>
		<edge from-layer="579" from-port="0" to-layer="582" to-port="1"/>
		<edge from-layer="580" from-port="0" to-layer="582" to-port="2"/>
		<edge from-layer="581" from-port="0" to-layer="582" to-port="3"/>
		<edge from-layer="582" from-port="4" to-layer="587" to-port="0"/>
		<edge from-layer="583" from-port="0" to-layer="586" to-port="1"/>
		<edge from-layer="584" from-port="0" to-layer="586" to-port="2"/>
		<edge from-layer="585" from-port="0" to-layer="586" to-port="3"/>
		<edge from-layer="586" from-port="4" to-layer="587" to-port="1"/>
		<edge from-layer="587" from-port="2" to-layer="589" to-port="0"/>
		<edge from-layer="588" from-port="0" to-layer="589" to-port="1"/>
		<edge from-layer="589" from-port="2" to-layer="602" to-port="5"/>
		<edge from-layer="590" from-port="1" to-layer="594" to-port="0"/>
		<edge from-layer="591" from-port="0" to-layer="594" to-port="1"/>
		<edge from-layer="592" from-port="0" to-layer="594" to-port="2"/>
		<edge from-layer="593" from-port="0" to-layer="594" to-port="3"/>
		<edge from-layer="594" from-port="4" to-layer="599" to-port="0"/>
		<edge from-layer="595" from-port="0" to-layer="598" to-port="1"/>
		<edge from-layer="596" from-port="0" to-layer="598" to-port="2"/>
		<edge from-layer="597" from-port="0" to-layer="598" to-port="3"/>
		<edge from-layer="598" from-port="4" to-layer="599" to-port="1"/>
		<edge from-layer="599" from-port="2" to-layer="601" to-port="0"/>
		<edge from-layer="600" from-port="0" to-layer="601" to-port="1"/>
		<edge from-layer="601" from-port="2" to-layer="602" to-port="6"/>
		<edge from-layer="602" from-port="7" to-layer="603" to-port="2"/>
		<edge from-layer="603" from-port="3" to-layer="604" to-port="0"/>
	</edges>
	<meta_data>
		<MO_version value="2022.1.0-6910-173f328c53d"/>
		<Runtime_version value="2022.1.0-6910-173f328c53d"/>
		<legacy_path value="True"/>
		<cli_parameters>
			<caffe_parser_path value="DIR"/>
			<compress_fp16 value="True"/>
			<data_type value="FP16"/>
			<disable_nhwc_to_nchw value="False"/>
			<disable_omitting_optional value="False"/>
			<disable_resnet_optimization value="False"/>
			<disable_weights_compression value="False"/>
			<enable_concat_optimization value="False"/>
			<enable_flattening_nested_params value="False"/>
			<enable_ssd_gluoncv value="False"/>
			<extensions value="DIR"/>
			<framework value="caffe"/>
			<freeze_placeholder_with_value value="{}"/>
			<generate_deprecated_IR_V7 value="False"/>
			<input value="data"/>
			<input_model value="DIR/model.caffemodel"/>
			<input_model_is_text value="False"/>
			<input_proto value="DIR/deploy.prototxt"/>
			<input_shape value="[1,3,384,672]"/>
			<k value="DIR/CustomLayersMapping.xml"/>
			<keep_shape_ops value="True"/>
			<layout value="data(nchw)"/>
			<layout_values value="{'data': {'source_layout': 'nchw', 'target_layout': None, 'is_input': True}}"/>
			<legacy_ir_generation value="False"/>
			<legacy_mxnet_model value="False"/>
			<log_level value="ERROR"/>
			<mean_scale_values value="{'data': {'mean': array([ 88., 107., 102.]), 'scale': array([76.9231])}}"/>
			<mean_values value="data[88.0,107.0,102.0]"/>
			<model_name value="face-detection-adas-0001"/>
			<output value="['detection_out']"/>
			<output_dir value="DIR"/>
			<packed_user_shapes value="defaultdict(&lt;class 'list'&gt;, {'data': [{'shape': (1, 3, 384, 672), 'port': None, 'added': True}]})"/>
			<placeholder_data_types value="{}"/>
			<placeholder_shapes value="{'data': (1, 3, 384, 672)}"/>
			<progress value="False"/>
			<remove_memory value="False"/>
			<remove_output_softmax value="False"/>
			<reverse_input_channels value="False"/>
			<save_params_from_nd value="False"/>
			<scale_values value="data[76.9231]"/>
			<silent value="False"/>
			<source_layout value="()"/>
			<static_shape value="False"/>
			<stream_output value="False"/>
			<target_layout value="()"/>
			<transform value=""/>
			<use_legacy_frontend value="False"/>
			<use_new_frontend value="False"/>
			<unset unset_cli_parameters="batch, counts, disable_fusing, disable_gfusing, finegrain_fusing, input_checkpoint, input_meta_graph, input_symbol, mean_file, mean_file_offsets, move_to_preprocess, nd_prefix_name, pretrained_model_name, saved_model_dir, saved_model_tags, scale, tensorboard_logdir, tensorflow_custom_layer_libraries, tensorflow_custom_operations_config_update, tensorflow_object_detection_api_pipeline_config, tensorflow_use_custom_operations_config, transformations_config"/>
		</cli_parameters>
	</meta_data>
</net>
